node {
  name: "model/feature_vector_"
  op: "Placeholder"
  attr {
    key: "_output_shapes"
    value {
      list {
        shape {
          dim {
            size: -1
          }
          dim {
            size: 131
          }
        }
      }
    }
  }
  attr {
    key: "dtype"
    value {
      type: DT_FLOAT
    }
  }
  attr {
    key: "shape"
    value {
      shape {
        dim {
          size: -1
        }
        dim {
          size: 131
        }
      }
    }
  }
}
node {
  name: "model/layer_1/W_1/Initializer/random_uniform/shape"
  op: "Const"
  attr {
    key: "_class"
    value {
      list {
        s: "loc:@model/layer_1/W_1"
      }
    }
  }
  attr {
    key: "_output_shapes"
    value {
      list {
        shape {
          dim {
            size: 2
          }
        }
      }
    }
  }
  attr {
    key: "dtype"
    value {
      type: DT_INT32
    }
  }
  attr {
    key: "value"
    value {
      tensor {
        dtype: DT_INT32
        tensor_shape {
          dim {
            size: 2
          }
        }
        tensor_content: "\203\000\000\000d\000\000\000"
      }
    }
  }
}
node {
  name: "model/layer_1/W_1/Initializer/random_uniform/min"
  op: "Const"
  attr {
    key: "_class"
    value {
      list {
        s: "loc:@model/layer_1/W_1"
      }
    }
  }
  attr {
    key: "_output_shapes"
    value {
      list {
        shape {
        }
      }
    }
  }
  attr {
    key: "dtype"
    value {
      type: DT_FLOAT
    }
  }
  attr {
    key: "value"
    value {
      tensor {
        dtype: DT_FLOAT
        tensor_shape {
        }
        float_val: -0.16116459667682648
      }
    }
  }
}
node {
  name: "model/layer_1/W_1/Initializer/random_uniform/max"
  op: "Const"
  attr {
    key: "_class"
    value {
      list {
        s: "loc:@model/layer_1/W_1"
      }
    }
  }
  attr {
    key: "_output_shapes"
    value {
      list {
        shape {
        }
      }
    }
  }
  attr {
    key: "dtype"
    value {
      type: DT_FLOAT
    }
  }
  attr {
    key: "value"
    value {
      tensor {
        dtype: DT_FLOAT
        tensor_shape {
        }
        float_val: 0.16116459667682648
      }
    }
  }
}
node {
  name: "model/layer_1/W_1/Initializer/random_uniform/RandomUniform"
  op: "RandomUniform"
  input: "model/layer_1/W_1/Initializer/random_uniform/shape"
  attr {
    key: "T"
    value {
      type: DT_INT32
    }
  }
  attr {
    key: "_class"
    value {
      list {
        s: "loc:@model/layer_1/W_1"
      }
    }
  }
  attr {
    key: "_output_shapes"
    value {
      list {
        shape {
          dim {
            size: 131
          }
          dim {
            size: 100
          }
        }
      }
    }
  }
  attr {
    key: "dtype"
    value {
      type: DT_FLOAT
    }
  }
  attr {
    key: "seed"
    value {
      i: 0
    }
  }
  attr {
    key: "seed2"
    value {
      i: 0
    }
  }
}
node {
  name: "model/layer_1/W_1/Initializer/random_uniform/sub"
  op: "Sub"
  input: "model/layer_1/W_1/Initializer/random_uniform/max"
  input: "model/layer_1/W_1/Initializer/random_uniform/min"
  attr {
    key: "T"
    value {
      type: DT_FLOAT
    }
  }
  attr {
    key: "_class"
    value {
      list {
        s: "loc:@model/layer_1/W_1"
      }
    }
  }
  attr {
    key: "_output_shapes"
    value {
      list {
        shape {
        }
      }
    }
  }
}
node {
  name: "model/layer_1/W_1/Initializer/random_uniform/mul"
  op: "Mul"
  input: "model/layer_1/W_1/Initializer/random_uniform/RandomUniform"
  input: "model/layer_1/W_1/Initializer/random_uniform/sub"
  attr {
    key: "T"
    value {
      type: DT_FLOAT
    }
  }
  attr {
    key: "_class"
    value {
      list {
        s: "loc:@model/layer_1/W_1"
      }
    }
  }
  attr {
    key: "_output_shapes"
    value {
      list {
        shape {
          dim {
            size: 131
          }
          dim {
            size: 100
          }
        }
      }
    }
  }
}
node {
  name: "model/layer_1/W_1/Initializer/random_uniform"
  op: "Add"
  input: "model/layer_1/W_1/Initializer/random_uniform/mul"
  input: "model/layer_1/W_1/Initializer/random_uniform/min"
  attr {
    key: "T"
    value {
      type: DT_FLOAT
    }
  }
  attr {
    key: "_class"
    value {
      list {
        s: "loc:@model/layer_1/W_1"
      }
    }
  }
  attr {
    key: "_output_shapes"
    value {
      list {
        shape {
          dim {
            size: 131
          }
          dim {
            size: 100
          }
        }
      }
    }
  }
}
node {
  name: "model/layer_1/W_1"
  op: "VariableV2"
  attr {
    key: "_class"
    value {
      list {
        s: "loc:@model/layer_1/W_1"
      }
    }
  }
  attr {
    key: "_output_shapes"
    value {
      list {
        shape {
          dim {
            size: 131
          }
          dim {
            size: 100
          }
        }
      }
    }
  }
  attr {
    key: "container"
    value {
      s: ""
    }
  }
  attr {
    key: "dtype"
    value {
      type: DT_FLOAT
    }
  }
  attr {
    key: "shape"
    value {
      shape {
        dim {
          size: 131
        }
        dim {
          size: 100
        }
      }
    }
  }
  attr {
    key: "shared_name"
    value {
      s: ""
    }
  }
}
node {
  name: "model/layer_1/W_1/Assign"
  op: "Assign"
  input: "model/layer_1/W_1"
  input: "model/layer_1/W_1/Initializer/random_uniform"
  attr {
    key: "T"
    value {
      type: DT_FLOAT
    }
  }
  attr {
    key: "_class"
    value {
      list {
        s: "loc:@model/layer_1/W_1"
      }
    }
  }
  attr {
    key: "_output_shapes"
    value {
      list {
        shape {
          dim {
            size: 131
          }
          dim {
            size: 100
          }
        }
      }
    }
  }
  attr {
    key: "use_locking"
    value {
      b: true
    }
  }
  attr {
    key: "validate_shape"
    value {
      b: true
    }
  }
}
node {
  name: "model/layer_1/W_1/read"
  op: "Identity"
  input: "model/layer_1/W_1"
  attr {
    key: "T"
    value {
      type: DT_FLOAT
    }
  }
  attr {
    key: "_class"
    value {
      list {
        s: "loc:@model/layer_1/W_1"
      }
    }
  }
  attr {
    key: "_output_shapes"
    value {
      list {
        shape {
          dim {
            size: 131
          }
          dim {
            size: 100
          }
        }
      }
    }
  }
}
node {
  name: "model/layer_1/MatMul"
  op: "MatMul"
  input: "model/feature_vector_"
  input: "model/layer_1/W_1/read"
  attr {
    key: "T"
    value {
      type: DT_FLOAT
    }
  }
  attr {
    key: "_output_shapes"
    value {
      list {
        shape {
          dim {
            size: -1
          }
          dim {
            size: 100
          }
        }
      }
    }
  }
  attr {
    key: "transpose_a"
    value {
      b: false
    }
  }
  attr {
    key: "transpose_b"
    value {
      b: false
    }
  }
}
node {
  name: "model/layer_1/hidden_1"
  op: "Relu"
  input: "model/layer_1/MatMul"
  attr {
    key: "T"
    value {
      type: DT_FLOAT
    }
  }
  attr {
    key: "_output_shapes"
    value {
      list {
        shape {
          dim {
            size: -1
          }
          dim {
            size: 100
          }
        }
      }
    }
  }
}
node {
  name: "model/layer_2/W_2/Initializer/random_uniform/shape"
  op: "Const"
  attr {
    key: "_class"
    value {
      list {
        s: "loc:@model/layer_2/W_2"
      }
    }
  }
  attr {
    key: "_output_shapes"
    value {
      list {
        shape {
          dim {
            size: 2
          }
        }
      }
    }
  }
  attr {
    key: "dtype"
    value {
      type: DT_INT32
    }
  }
  attr {
    key: "value"
    value {
      tensor {
        dtype: DT_INT32
        tensor_shape {
          dim {
            size: 2
          }
        }
        tensor_content: "d\000\000\000\001\000\000\000"
      }
    }
  }
}
node {
  name: "model/layer_2/W_2/Initializer/random_uniform/min"
  op: "Const"
  attr {
    key: "_class"
    value {
      list {
        s: "loc:@model/layer_2/W_2"
      }
    }
  }
  attr {
    key: "_output_shapes"
    value {
      list {
        shape {
        }
      }
    }
  }
  attr {
    key: "dtype"
    value {
      type: DT_FLOAT
    }
  }
  attr {
    key: "value"
    value {
      tensor {
        dtype: DT_FLOAT
        tensor_shape {
        }
        float_val: -0.24373334646224976
      }
    }
  }
}
node {
  name: "model/layer_2/W_2/Initializer/random_uniform/max"
  op: "Const"
  attr {
    key: "_class"
    value {
      list {
        s: "loc:@model/layer_2/W_2"
      }
    }
  }
  attr {
    key: "_output_shapes"
    value {
      list {
        shape {
        }
      }
    }
  }
  attr {
    key: "dtype"
    value {
      type: DT_FLOAT
    }
  }
  attr {
    key: "value"
    value {
      tensor {
        dtype: DT_FLOAT
        tensor_shape {
        }
        float_val: 0.24373334646224976
      }
    }
  }
}
node {
  name: "model/layer_2/W_2/Initializer/random_uniform/RandomUniform"
  op: "RandomUniform"
  input: "model/layer_2/W_2/Initializer/random_uniform/shape"
  attr {
    key: "T"
    value {
      type: DT_INT32
    }
  }
  attr {
    key: "_class"
    value {
      list {
        s: "loc:@model/layer_2/W_2"
      }
    }
  }
  attr {
    key: "_output_shapes"
    value {
      list {
        shape {
          dim {
            size: 100
          }
          dim {
            size: 1
          }
        }
      }
    }
  }
  attr {
    key: "dtype"
    value {
      type: DT_FLOAT
    }
  }
  attr {
    key: "seed"
    value {
      i: 0
    }
  }
  attr {
    key: "seed2"
    value {
      i: 0
    }
  }
}
node {
  name: "model/layer_2/W_2/Initializer/random_uniform/sub"
  op: "Sub"
  input: "model/layer_2/W_2/Initializer/random_uniform/max"
  input: "model/layer_2/W_2/Initializer/random_uniform/min"
  attr {
    key: "T"
    value {
      type: DT_FLOAT
    }
  }
  attr {
    key: "_class"
    value {
      list {
        s: "loc:@model/layer_2/W_2"
      }
    }
  }
  attr {
    key: "_output_shapes"
    value {
      list {
        shape {
        }
      }
    }
  }
}
node {
  name: "model/layer_2/W_2/Initializer/random_uniform/mul"
  op: "Mul"
  input: "model/layer_2/W_2/Initializer/random_uniform/RandomUniform"
  input: "model/layer_2/W_2/Initializer/random_uniform/sub"
  attr {
    key: "T"
    value {
      type: DT_FLOAT
    }
  }
  attr {
    key: "_class"
    value {
      list {
        s: "loc:@model/layer_2/W_2"
      }
    }
  }
  attr {
    key: "_output_shapes"
    value {
      list {
        shape {
          dim {
            size: 100
          }
          dim {
            size: 1
          }
        }
      }
    }
  }
}
node {
  name: "model/layer_2/W_2/Initializer/random_uniform"
  op: "Add"
  input: "model/layer_2/W_2/Initializer/random_uniform/mul"
  input: "model/layer_2/W_2/Initializer/random_uniform/min"
  attr {
    key: "T"
    value {
      type: DT_FLOAT
    }
  }
  attr {
    key: "_class"
    value {
      list {
        s: "loc:@model/layer_2/W_2"
      }
    }
  }
  attr {
    key: "_output_shapes"
    value {
      list {
        shape {
          dim {
            size: 100
          }
          dim {
            size: 1
          }
        }
      }
    }
  }
}
node {
  name: "model/layer_2/W_2"
  op: "VariableV2"
  attr {
    key: "_class"
    value {
      list {
        s: "loc:@model/layer_2/W_2"
      }
    }
  }
  attr {
    key: "_output_shapes"
    value {
      list {
        shape {
          dim {
            size: 100
          }
          dim {
            size: 1
          }
        }
      }
    }
  }
  attr {
    key: "container"
    value {
      s: ""
    }
  }
  attr {
    key: "dtype"
    value {
      type: DT_FLOAT
    }
  }
  attr {
    key: "shape"
    value {
      shape {
        dim {
          size: 100
        }
        dim {
          size: 1
        }
      }
    }
  }
  attr {
    key: "shared_name"
    value {
      s: ""
    }
  }
}
node {
  name: "model/layer_2/W_2/Assign"
  op: "Assign"
  input: "model/layer_2/W_2"
  input: "model/layer_2/W_2/Initializer/random_uniform"
  attr {
    key: "T"
    value {
      type: DT_FLOAT
    }
  }
  attr {
    key: "_class"
    value {
      list {
        s: "loc:@model/layer_2/W_2"
      }
    }
  }
  attr {
    key: "_output_shapes"
    value {
      list {
        shape {
          dim {
            size: 100
          }
          dim {
            size: 1
          }
        }
      }
    }
  }
  attr {
    key: "use_locking"
    value {
      b: true
    }
  }
  attr {
    key: "validate_shape"
    value {
      b: true
    }
  }
}
node {
  name: "model/layer_2/W_2/read"
  op: "Identity"
  input: "model/layer_2/W_2"
  attr {
    key: "T"
    value {
      type: DT_FLOAT
    }
  }
  attr {
    key: "_class"
    value {
      list {
        s: "loc:@model/layer_2/W_2"
      }
    }
  }
  attr {
    key: "_output_shapes"
    value {
      list {
        shape {
          dim {
            size: 100
          }
          dim {
            size: 1
          }
        }
      }
    }
  }
}
node {
  name: "model/layer_2/MatMul"
  op: "MatMul"
  input: "model/layer_1/hidden_1"
  input: "model/layer_2/W_2/read"
  attr {
    key: "T"
    value {
      type: DT_FLOAT
    }
  }
  attr {
    key: "_output_shapes"
    value {
      list {
        shape {
          dim {
            size: -1
          }
          dim {
            size: 1
          }
        }
      }
    }
  }
  attr {
    key: "transpose_a"
    value {
      b: false
    }
  }
  attr {
    key: "transpose_b"
    value {
      b: false
    }
  }
}
node {
  name: "model/layer_2/value"
  op: "Tanh"
  input: "model/layer_2/MatMul"
  attr {
    key: "T"
    value {
      type: DT_FLOAT
    }
  }
  attr {
    key: "_output_shapes"
    value {
      list {
        shape {
          dim {
            size: -1
          }
          dim {
            size: 1
          }
        }
      }
    }
  }
}
node {
  name: "global_step/Initializer/zeros"
  op: "Const"
  attr {
    key: "_class"
    value {
      list {
        s: "loc:@global_step"
      }
    }
  }
  attr {
    key: "_output_shapes"
    value {
      list {
        shape {
        }
      }
    }
  }
  attr {
    key: "dtype"
    value {
      type: DT_INT64
    }
  }
  attr {
    key: "value"
    value {
      tensor {
        dtype: DT_INT64
        tensor_shape {
        }
        int64_val: 0
      }
    }
  }
}
node {
  name: "global_step"
  op: "VariableV2"
  attr {
    key: "_class"
    value {
      list {
        s: "loc:@global_step"
      }
    }
  }
  attr {
    key: "_output_shapes"
    value {
      list {
        shape {
        }
      }
    }
  }
  attr {
    key: "container"
    value {
      s: ""
    }
  }
  attr {
    key: "dtype"
    value {
      type: DT_INT64
    }
  }
  attr {
    key: "shape"
    value {
      shape {
      }
    }
  }
  attr {
    key: "shared_name"
    value {
      s: ""
    }
  }
}
node {
  name: "global_step/Assign"
  op: "Assign"
  input: "global_step"
  input: "global_step/Initializer/zeros"
  attr {
    key: "T"
    value {
      type: DT_INT64
    }
  }
  attr {
    key: "_class"
    value {
      list {
        s: "loc:@global_step"
      }
    }
  }
  attr {
    key: "_output_shapes"
    value {
      list {
        shape {
        }
      }
    }
  }
  attr {
    key: "use_locking"
    value {
      b: true
    }
  }
  attr {
    key: "validate_shape"
    value {
      b: true
    }
  }
}
node {
  name: "global_step/read"
  op: "Identity"
  input: "global_step"
  attr {
    key: "T"
    value {
      type: DT_INT64
    }
  }
  attr {
    key: "_class"
    value {
      list {
        s: "loc:@global_step"
      }
    }
  }
  attr {
    key: "_output_shapes"
    value {
      list {
        shape {
        }
      }
    }
  }
}
node {
  name: "AssignAdd/value"
  op: "Const"
  attr {
    key: "_output_shapes"
    value {
      list {
        shape {
        }
      }
    }
  }
  attr {
    key: "dtype"
    value {
      type: DT_INT64
    }
  }
  attr {
    key: "value"
    value {
      tensor {
        dtype: DT_INT64
        tensor_shape {
        }
        int64_val: 1
      }
    }
  }
}
node {
  name: "AssignAdd"
  op: "AssignAdd"
  input: "global_step"
  input: "AssignAdd/value"
  attr {
    key: "T"
    value {
      type: DT_INT64
    }
  }
  attr {
    key: "_class"
    value {
      list {
        s: "loc:@global_step"
      }
    }
  }
  attr {
    key: "_output_shapes"
    value {
      list {
        shape {
        }
      }
    }
  }
  attr {
    key: "use_locking"
    value {
      b: false
    }
  }
}
node {
  name: "model/layer_1/W_1_1/tag"
  op: "Const"
  attr {
    key: "_output_shapes"
    value {
      list {
        shape {
        }
      }
    }
  }
  attr {
    key: "dtype"
    value {
      type: DT_STRING
    }
  }
  attr {
    key: "value"
    value {
      tensor {
        dtype: DT_STRING
        tensor_shape {
        }
        string_val: "model/layer_1/W_1_1"
      }
    }
  }
}
node {
  name: "model/layer_1/W_1_1"
  op: "HistogramSummary"
  input: "model/layer_1/W_1_1/tag"
  input: "model/layer_1/W_1/read"
  attr {
    key: "T"
    value {
      type: DT_FLOAT
    }
  }
  attr {
    key: "_output_shapes"
    value {
      list {
        shape {
        }
      }
    }
  }
}
node {
  name: "model/layer_2/W_2_1/tag"
  op: "Const"
  attr {
    key: "_output_shapes"
    value {
      list {
        shape {
        }
      }
    }
  }
  attr {
    key: "dtype"
    value {
      type: DT_STRING
    }
  }
  attr {
    key: "value"
    value {
      tensor {
        dtype: DT_STRING
        tensor_shape {
        }
        string_val: "model/layer_2/W_2_1"
      }
    }
  }
}
node {
  name: "model/layer_2/W_2_1"
  op: "HistogramSummary"
  input: "model/layer_2/W_2_1/tag"
  input: "model/layer_2/W_2/read"
  attr {
    key: "T"
    value {
      type: DT_FLOAT
    }
  }
  attr {
    key: "_output_shapes"
    value {
      list {
        shape {
        }
      }
    }
  }
}
node {
  name: "random_agent_test_results/white_wins/initial_value"
  op: "Const"
  attr {
    key: "_output_shapes"
    value {
      list {
        shape {
        }
      }
    }
  }
  attr {
    key: "dtype"
    value {
      type: DT_INT32
    }
  }
  attr {
    key: "value"
    value {
      tensor {
        dtype: DT_INT32
        tensor_shape {
        }
        int_val: 0
      }
    }
  }
}
node {
  name: "random_agent_test_results/white_wins"
  op: "VariableV2"
  attr {
    key: "_output_shapes"
    value {
      list {
        shape {
        }
      }
    }
  }
  attr {
    key: "container"
    value {
      s: ""
    }
  }
  attr {
    key: "dtype"
    value {
      type: DT_INT32
    }
  }
  attr {
    key: "shape"
    value {
      shape {
      }
    }
  }
  attr {
    key: "shared_name"
    value {
      s: ""
    }
  }
}
node {
  name: "random_agent_test_results/white_wins/Assign"
  op: "Assign"
  input: "random_agent_test_results/white_wins"
  input: "random_agent_test_results/white_wins/initial_value"
  attr {
    key: "T"
    value {
      type: DT_INT32
    }
  }
  attr {
    key: "_class"
    value {
      list {
        s: "loc:@random_agent_test_results/white_wins"
      }
    }
  }
  attr {
    key: "_output_shapes"
    value {
      list {
        shape {
        }
      }
    }
  }
  attr {
    key: "use_locking"
    value {
      b: true
    }
  }
  attr {
    key: "validate_shape"
    value {
      b: true
    }
  }
}
node {
  name: "random_agent_test_results/white_wins/read"
  op: "Identity"
  input: "random_agent_test_results/white_wins"
  attr {
    key: "T"
    value {
      type: DT_INT32
    }
  }
  attr {
    key: "_class"
    value {
      list {
        s: "loc:@random_agent_test_results/white_wins"
      }
    }
  }
  attr {
    key: "_output_shapes"
    value {
      list {
        shape {
        }
      }
    }
  }
}
node {
  name: "random_agent_test_results/white_wins_"
  op: "Placeholder"
  attr {
    key: "_output_shapes"
    value {
      list {
        shape {
          unknown_rank: true
        }
      }
    }
  }
  attr {
    key: "dtype"
    value {
      type: DT_INT32
    }
  }
  attr {
    key: "shape"
    value {
      shape {
        unknown_rank: true
      }
    }
  }
}
node {
  name: "random_agent_test_results/black_wins/initial_value"
  op: "Const"
  attr {
    key: "_output_shapes"
    value {
      list {
        shape {
        }
      }
    }
  }
  attr {
    key: "dtype"
    value {
      type: DT_INT32
    }
  }
  attr {
    key: "value"
    value {
      tensor {
        dtype: DT_INT32
        tensor_shape {
        }
        int_val: 0
      }
    }
  }
}
node {
  name: "random_agent_test_results/black_wins"
  op: "VariableV2"
  attr {
    key: "_output_shapes"
    value {
      list {
        shape {
        }
      }
    }
  }
  attr {
    key: "container"
    value {
      s: ""
    }
  }
  attr {
    key: "dtype"
    value {
      type: DT_INT32
    }
  }
  attr {
    key: "shape"
    value {
      shape {
      }
    }
  }
  attr {
    key: "shared_name"
    value {
      s: ""
    }
  }
}
node {
  name: "random_agent_test_results/black_wins/Assign"
  op: "Assign"
  input: "random_agent_test_results/black_wins"
  input: "random_agent_test_results/black_wins/initial_value"
  attr {
    key: "T"
    value {
      type: DT_INT32
    }
  }
  attr {
    key: "_class"
    value {
      list {
        s: "loc:@random_agent_test_results/black_wins"
      }
    }
  }
  attr {
    key: "_output_shapes"
    value {
      list {
        shape {
        }
      }
    }
  }
  attr {
    key: "use_locking"
    value {
      b: true
    }
  }
  attr {
    key: "validate_shape"
    value {
      b: true
    }
  }
}
node {
  name: "random_agent_test_results/black_wins/read"
  op: "Identity"
  input: "random_agent_test_results/black_wins"
  attr {
    key: "T"
    value {
      type: DT_INT32
    }
  }
  attr {
    key: "_class"
    value {
      list {
        s: "loc:@random_agent_test_results/black_wins"
      }
    }
  }
  attr {
    key: "_output_shapes"
    value {
      list {
        shape {
        }
      }
    }
  }
}
node {
  name: "random_agent_test_results/black_wins_"
  op: "Placeholder"
  attr {
    key: "_output_shapes"
    value {
      list {
        shape {
          unknown_rank: true
        }
      }
    }
  }
  attr {
    key: "dtype"
    value {
      type: DT_INT32
    }
  }
  attr {
    key: "shape"
    value {
      shape {
        unknown_rank: true
      }
    }
  }
}
node {
  name: "random_agent_test_results/white_losses/initial_value"
  op: "Const"
  attr {
    key: "_output_shapes"
    value {
      list {
        shape {
        }
      }
    }
  }
  attr {
    key: "dtype"
    value {
      type: DT_INT32
    }
  }
  attr {
    key: "value"
    value {
      tensor {
        dtype: DT_INT32
        tensor_shape {
        }
        int_val: 0
      }
    }
  }
}
node {
  name: "random_agent_test_results/white_losses"
  op: "VariableV2"
  attr {
    key: "_output_shapes"
    value {
      list {
        shape {
        }
      }
    }
  }
  attr {
    key: "container"
    value {
      s: ""
    }
  }
  attr {
    key: "dtype"
    value {
      type: DT_INT32
    }
  }
  attr {
    key: "shape"
    value {
      shape {
      }
    }
  }
  attr {
    key: "shared_name"
    value {
      s: ""
    }
  }
}
node {
  name: "random_agent_test_results/white_losses/Assign"
  op: "Assign"
  input: "random_agent_test_results/white_losses"
  input: "random_agent_test_results/white_losses/initial_value"
  attr {
    key: "T"
    value {
      type: DT_INT32
    }
  }
  attr {
    key: "_class"
    value {
      list {
        s: "loc:@random_agent_test_results/white_losses"
      }
    }
  }
  attr {
    key: "_output_shapes"
    value {
      list {
        shape {
        }
      }
    }
  }
  attr {
    key: "use_locking"
    value {
      b: true
    }
  }
  attr {
    key: "validate_shape"
    value {
      b: true
    }
  }
}
node {
  name: "random_agent_test_results/white_losses/read"
  op: "Identity"
  input: "random_agent_test_results/white_losses"
  attr {
    key: "T"
    value {
      type: DT_INT32
    }
  }
  attr {
    key: "_class"
    value {
      list {
        s: "loc:@random_agent_test_results/white_losses"
      }
    }
  }
  attr {
    key: "_output_shapes"
    value {
      list {
        shape {
        }
      }
    }
  }
}
node {
  name: "random_agent_test_results/white_losses_"
  op: "Placeholder"
  attr {
    key: "_output_shapes"
    value {
      list {
        shape {
          unknown_rank: true
        }
      }
    }
  }
  attr {
    key: "dtype"
    value {
      type: DT_INT32
    }
  }
  attr {
    key: "shape"
    value {
      shape {
        unknown_rank: true
      }
    }
  }
}
node {
  name: "random_agent_test_results/black_losses/initial_value"
  op: "Const"
  attr {
    key: "_output_shapes"
    value {
      list {
        shape {
        }
      }
    }
  }
  attr {
    key: "dtype"
    value {
      type: DT_INT32
    }
  }
  attr {
    key: "value"
    value {
      tensor {
        dtype: DT_INT32
        tensor_shape {
        }
        int_val: 0
      }
    }
  }
}
node {
  name: "random_agent_test_results/black_losses"
  op: "VariableV2"
  attr {
    key: "_output_shapes"
    value {
      list {
        shape {
        }
      }
    }
  }
  attr {
    key: "container"
    value {
      s: ""
    }
  }
  attr {
    key: "dtype"
    value {
      type: DT_INT32
    }
  }
  attr {
    key: "shape"
    value {
      shape {
      }
    }
  }
  attr {
    key: "shared_name"
    value {
      s: ""
    }
  }
}
node {
  name: "random_agent_test_results/black_losses/Assign"
  op: "Assign"
  input: "random_agent_test_results/black_losses"
  input: "random_agent_test_results/black_losses/initial_value"
  attr {
    key: "T"
    value {
      type: DT_INT32
    }
  }
  attr {
    key: "_class"
    value {
      list {
        s: "loc:@random_agent_test_results/black_losses"
      }
    }
  }
  attr {
    key: "_output_shapes"
    value {
      list {
        shape {
        }
      }
    }
  }
  attr {
    key: "use_locking"
    value {
      b: true
    }
  }
  attr {
    key: "validate_shape"
    value {
      b: true
    }
  }
}
node {
  name: "random_agent_test_results/black_losses/read"
  op: "Identity"
  input: "random_agent_test_results/black_losses"
  attr {
    key: "T"
    value {
      type: DT_INT32
    }
  }
  attr {
    key: "_class"
    value {
      list {
        s: "loc:@random_agent_test_results/black_losses"
      }
    }
  }
  attr {
    key: "_output_shapes"
    value {
      list {
        shape {
        }
      }
    }
  }
}
node {
  name: "random_agent_test_results/black_losses_"
  op: "Placeholder"
  attr {
    key: "_output_shapes"
    value {
      list {
        shape {
          unknown_rank: true
        }
      }
    }
  }
  attr {
    key: "dtype"
    value {
      type: DT_INT32
    }
  }
  attr {
    key: "shape"
    value {
      shape {
        unknown_rank: true
      }
    }
  }
}
node {
  name: "random_agent_test_results/white_draws/initial_value"
  op: "Const"
  attr {
    key: "_output_shapes"
    value {
      list {
        shape {
        }
      }
    }
  }
  attr {
    key: "dtype"
    value {
      type: DT_INT32
    }
  }
  attr {
    key: "value"
    value {
      tensor {
        dtype: DT_INT32
        tensor_shape {
        }
        int_val: 0
      }
    }
  }
}
node {
  name: "random_agent_test_results/white_draws"
  op: "VariableV2"
  attr {
    key: "_output_shapes"
    value {
      list {
        shape {
        }
      }
    }
  }
  attr {
    key: "container"
    value {
      s: ""
    }
  }
  attr {
    key: "dtype"
    value {
      type: DT_INT32
    }
  }
  attr {
    key: "shape"
    value {
      shape {
      }
    }
  }
  attr {
    key: "shared_name"
    value {
      s: ""
    }
  }
}
node {
  name: "random_agent_test_results/white_draws/Assign"
  op: "Assign"
  input: "random_agent_test_results/white_draws"
  input: "random_agent_test_results/white_draws/initial_value"
  attr {
    key: "T"
    value {
      type: DT_INT32
    }
  }
  attr {
    key: "_class"
    value {
      list {
        s: "loc:@random_agent_test_results/white_draws"
      }
    }
  }
  attr {
    key: "_output_shapes"
    value {
      list {
        shape {
        }
      }
    }
  }
  attr {
    key: "use_locking"
    value {
      b: true
    }
  }
  attr {
    key: "validate_shape"
    value {
      b: true
    }
  }
}
node {
  name: "random_agent_test_results/white_draws/read"
  op: "Identity"
  input: "random_agent_test_results/white_draws"
  attr {
    key: "T"
    value {
      type: DT_INT32
    }
  }
  attr {
    key: "_class"
    value {
      list {
        s: "loc:@random_agent_test_results/white_draws"
      }
    }
  }
  attr {
    key: "_output_shapes"
    value {
      list {
        shape {
        }
      }
    }
  }
}
node {
  name: "random_agent_test_results/white_draws_"
  op: "Placeholder"
  attr {
    key: "_output_shapes"
    value {
      list {
        shape {
          unknown_rank: true
        }
      }
    }
  }
  attr {
    key: "dtype"
    value {
      type: DT_INT32
    }
  }
  attr {
    key: "shape"
    value {
      shape {
        unknown_rank: true
      }
    }
  }
}
node {
  name: "random_agent_test_results/black_draws/initial_value"
  op: "Const"
  attr {
    key: "_output_shapes"
    value {
      list {
        shape {
        }
      }
    }
  }
  attr {
    key: "dtype"
    value {
      type: DT_INT32
    }
  }
  attr {
    key: "value"
    value {
      tensor {
        dtype: DT_INT32
        tensor_shape {
        }
        int_val: 0
      }
    }
  }
}
node {
  name: "random_agent_test_results/black_draws"
  op: "VariableV2"
  attr {
    key: "_output_shapes"
    value {
      list {
        shape {
        }
      }
    }
  }
  attr {
    key: "container"
    value {
      s: ""
    }
  }
  attr {
    key: "dtype"
    value {
      type: DT_INT32
    }
  }
  attr {
    key: "shape"
    value {
      shape {
      }
    }
  }
  attr {
    key: "shared_name"
    value {
      s: ""
    }
  }
}
node {
  name: "random_agent_test_results/black_draws/Assign"
  op: "Assign"
  input: "random_agent_test_results/black_draws"
  input: "random_agent_test_results/black_draws/initial_value"
  attr {
    key: "T"
    value {
      type: DT_INT32
    }
  }
  attr {
    key: "_class"
    value {
      list {
        s: "loc:@random_agent_test_results/black_draws"
      }
    }
  }
  attr {
    key: "_output_shapes"
    value {
      list {
        shape {
        }
      }
    }
  }
  attr {
    key: "use_locking"
    value {
      b: true
    }
  }
  attr {
    key: "validate_shape"
    value {
      b: true
    }
  }
}
node {
  name: "random_agent_test_results/black_draws/read"
  op: "Identity"
  input: "random_agent_test_results/black_draws"
  attr {
    key: "T"
    value {
      type: DT_INT32
    }
  }
  attr {
    key: "_class"
    value {
      list {
        s: "loc:@random_agent_test_results/black_draws"
      }
    }
  }
  attr {
    key: "_output_shapes"
    value {
      list {
        shape {
        }
      }
    }
  }
}
node {
  name: "random_agent_test_results/black_draws_"
  op: "Placeholder"
  attr {
    key: "_output_shapes"
    value {
      list {
        shape {
          unknown_rank: true
        }
      }
    }
  }
  attr {
    key: "dtype"
    value {
      type: DT_INT32
    }
  }
  attr {
    key: "shape"
    value {
      shape {
        unknown_rank: true
      }
    }
  }
}
node {
  name: "random_agent_test_results/Assign"
  op: "Assign"
  input: "random_agent_test_results/white_wins"
  input: "random_agent_test_results/white_wins_"
  attr {
    key: "T"
    value {
      type: DT_INT32
    }
  }
  attr {
    key: "_class"
    value {
      list {
        s: "loc:@random_agent_test_results/white_wins"
      }
    }
  }
  attr {
    key: "_output_shapes"
    value {
      list {
        shape {
        }
      }
    }
  }
  attr {
    key: "use_locking"
    value {
      b: true
    }
  }
  attr {
    key: "validate_shape"
    value {
      b: true
    }
  }
}
node {
  name: "random_agent_test_results/Assign_1"
  op: "Assign"
  input: "random_agent_test_results/white_draws"
  input: "random_agent_test_results/white_draws_"
  attr {
    key: "T"
    value {
      type: DT_INT32
    }
  }
  attr {
    key: "_class"
    value {
      list {
        s: "loc:@random_agent_test_results/white_draws"
      }
    }
  }
  attr {
    key: "_output_shapes"
    value {
      list {
        shape {
        }
      }
    }
  }
  attr {
    key: "use_locking"
    value {
      b: true
    }
  }
  attr {
    key: "validate_shape"
    value {
      b: true
    }
  }
}
node {
  name: "random_agent_test_results/Assign_2"
  op: "Assign"
  input: "random_agent_test_results/white_losses"
  input: "random_agent_test_results/white_losses_"
  attr {
    key: "T"
    value {
      type: DT_INT32
    }
  }
  attr {
    key: "_class"
    value {
      list {
        s: "loc:@random_agent_test_results/white_losses"
      }
    }
  }
  attr {
    key: "_output_shapes"
    value {
      list {
        shape {
        }
      }
    }
  }
  attr {
    key: "use_locking"
    value {
      b: true
    }
  }
  attr {
    key: "validate_shape"
    value {
      b: true
    }
  }
}
node {
  name: "random_agent_test_results/Assign_3"
  op: "Assign"
  input: "random_agent_test_results/black_wins"
  input: "random_agent_test_results/black_wins_"
  attr {
    key: "T"
    value {
      type: DT_INT32
    }
  }
  attr {
    key: "_class"
    value {
      list {
        s: "loc:@random_agent_test_results/black_wins"
      }
    }
  }
  attr {
    key: "_output_shapes"
    value {
      list {
        shape {
        }
      }
    }
  }
  attr {
    key: "use_locking"
    value {
      b: true
    }
  }
  attr {
    key: "validate_shape"
    value {
      b: true
    }
  }
}
node {
  name: "random_agent_test_results/Assign_4"
  op: "Assign"
  input: "random_agent_test_results/black_draws"
  input: "random_agent_test_results/black_draws_"
  attr {
    key: "T"
    value {
      type: DT_INT32
    }
  }
  attr {
    key: "_class"
    value {
      list {
        s: "loc:@random_agent_test_results/black_draws"
      }
    }
  }
  attr {
    key: "_output_shapes"
    value {
      list {
        shape {
        }
      }
    }
  }
  attr {
    key: "use_locking"
    value {
      b: true
    }
  }
  attr {
    key: "validate_shape"
    value {
      b: true
    }
  }
}
node {
  name: "random_agent_test_results/Assign_5"
  op: "Assign"
  input: "random_agent_test_results/black_losses"
  input: "random_agent_test_results/black_losses_"
  attr {
    key: "T"
    value {
      type: DT_INT32
    }
  }
  attr {
    key: "_class"
    value {
      list {
        s: "loc:@random_agent_test_results/black_losses"
      }
    }
  }
  attr {
    key: "_output_shapes"
    value {
      list {
        shape {
        }
      }
    }
  }
  attr {
    key: "use_locking"
    value {
      b: true
    }
  }
  attr {
    key: "validate_shape"
    value {
      b: true
    }
  }
}
node {
  name: "random_agent_test_results/group_deps"
  op: "NoOp"
  input: "^random_agent_test_results/Assign"
  input: "^random_agent_test_results/Assign_1"
  input: "^random_agent_test_results/Assign_2"
  input: "^random_agent_test_results/Assign_3"
  input: "^random_agent_test_results/Assign_4"
  input: "^random_agent_test_results/Assign_5"
}
node {
  name: "random_agent_test_results/player_white_wins/tags"
  op: "Const"
  attr {
    key: "_output_shapes"
    value {
      list {
        shape {
        }
      }
    }
  }
  attr {
    key: "dtype"
    value {
      type: DT_STRING
    }
  }
  attr {
    key: "value"
    value {
      tensor {
        dtype: DT_STRING
        tensor_shape {
        }
        string_val: "random_agent_test_results/player_white_wins"
      }
    }
  }
}
node {
  name: "random_agent_test_results/player_white_wins"
  op: "ScalarSummary"
  input: "random_agent_test_results/player_white_wins/tags"
  input: "random_agent_test_results/white_wins/read"
  attr {
    key: "T"
    value {
      type: DT_INT32
    }
  }
  attr {
    key: "_output_shapes"
    value {
      list {
        shape {
        }
      }
    }
  }
}
node {
  name: "random_agent_test_results/player_white_draws/tags"
  op: "Const"
  attr {
    key: "_output_shapes"
    value {
      list {
        shape {
        }
      }
    }
  }
  attr {
    key: "dtype"
    value {
      type: DT_STRING
    }
  }
  attr {
    key: "value"
    value {
      tensor {
        dtype: DT_STRING
        tensor_shape {
        }
        string_val: "random_agent_test_results/player_white_draws"
      }
    }
  }
}
node {
  name: "random_agent_test_results/player_white_draws"
  op: "ScalarSummary"
  input: "random_agent_test_results/player_white_draws/tags"
  input: "random_agent_test_results/white_losses/read"
  attr {
    key: "T"
    value {
      type: DT_INT32
    }
  }
  attr {
    key: "_output_shapes"
    value {
      list {
        shape {
        }
      }
    }
  }
}
node {
  name: "random_agent_test_results/player_white_losses/tags"
  op: "Const"
  attr {
    key: "_output_shapes"
    value {
      list {
        shape {
        }
      }
    }
  }
  attr {
    key: "dtype"
    value {
      type: DT_STRING
    }
  }
  attr {
    key: "value"
    value {
      tensor {
        dtype: DT_STRING
        tensor_shape {
        }
        string_val: "random_agent_test_results/player_white_losses"
      }
    }
  }
}
node {
  name: "random_agent_test_results/player_white_losses"
  op: "ScalarSummary"
  input: "random_agent_test_results/player_white_losses/tags"
  input: "random_agent_test_results/white_draws/read"
  attr {
    key: "T"
    value {
      type: DT_INT32
    }
  }
  attr {
    key: "_output_shapes"
    value {
      list {
        shape {
        }
      }
    }
  }
}
node {
  name: "random_agent_test_results/player_black_wins/tags"
  op: "Const"
  attr {
    key: "_output_shapes"
    value {
      list {
        shape {
        }
      }
    }
  }
  attr {
    key: "dtype"
    value {
      type: DT_STRING
    }
  }
  attr {
    key: "value"
    value {
      tensor {
        dtype: DT_STRING
        tensor_shape {
        }
        string_val: "random_agent_test_results/player_black_wins"
      }
    }
  }
}
node {
  name: "random_agent_test_results/player_black_wins"
  op: "ScalarSummary"
  input: "random_agent_test_results/player_black_wins/tags"
  input: "random_agent_test_results/black_wins/read"
  attr {
    key: "T"
    value {
      type: DT_INT32
    }
  }
  attr {
    key: "_output_shapes"
    value {
      list {
        shape {
        }
      }
    }
  }
}
node {
  name: "random_agent_test_results/player_black_draws/tags"
  op: "Const"
  attr {
    key: "_output_shapes"
    value {
      list {
        shape {
        }
      }
    }
  }
  attr {
    key: "dtype"
    value {
      type: DT_STRING
    }
  }
  attr {
    key: "value"
    value {
      tensor {
        dtype: DT_STRING
        tensor_shape {
        }
        string_val: "random_agent_test_results/player_black_draws"
      }
    }
  }
}
node {
  name: "random_agent_test_results/player_black_draws"
  op: "ScalarSummary"
  input: "random_agent_test_results/player_black_draws/tags"
  input: "random_agent_test_results/black_losses/read"
  attr {
    key: "T"
    value {
      type: DT_INT32
    }
  }
  attr {
    key: "_output_shapes"
    value {
      list {
        shape {
        }
      }
    }
  }
}
node {
  name: "random_agent_test_results/player_black_losses/tags"
  op: "Const"
  attr {
    key: "_output_shapes"
    value {
      list {
        shape {
        }
      }
    }
  }
  attr {
    key: "dtype"
    value {
      type: DT_STRING
    }
  }
  attr {
    key: "value"
    value {
      tensor {
        dtype: DT_STRING
        tensor_shape {
        }
        string_val: "random_agent_test_results/player_black_losses"
      }
    }
  }
}
node {
  name: "random_agent_test_results/player_black_losses"
  op: "ScalarSummary"
  input: "random_agent_test_results/player_black_losses/tags"
  input: "random_agent_test_results/black_draws/read"
  attr {
    key: "T"
    value {
      type: DT_INT32
    }
  }
  attr {
    key: "_output_shapes"
    value {
      list {
        shape {
        }
      }
    }
  }
}
node {
  name: "gradients/Shape"
  op: "Shape"
  input: "model/layer_2/value"
  attr {
    key: "T"
    value {
      type: DT_FLOAT
    }
  }
  attr {
    key: "_output_shapes"
    value {
      list {
        shape {
          dim {
            size: 2
          }
        }
      }
    }
  }
  attr {
    key: "out_type"
    value {
      type: DT_INT32
    }
  }
}
node {
  name: "gradients/grad_ys_0"
  op: "Const"
  attr {
    key: "_output_shapes"
    value {
      list {
        shape {
        }
      }
    }
  }
  attr {
    key: "dtype"
    value {
      type: DT_FLOAT
    }
  }
  attr {
    key: "value"
    value {
      tensor {
        dtype: DT_FLOAT
        tensor_shape {
        }
        float_val: 1.0
      }
    }
  }
}
node {
  name: "gradients/Fill"
  op: "Fill"
  input: "gradients/Shape"
  input: "gradients/grad_ys_0"
  attr {
    key: "T"
    value {
      type: DT_FLOAT
    }
  }
  attr {
    key: "_output_shapes"
    value {
      list {
        shape {
          dim {
            size: -1
          }
          dim {
            size: 1
          }
        }
      }
    }
  }
  attr {
    key: "index_type"
    value {
      type: DT_INT32
    }
  }
}
node {
  name: "gradients/model/layer_2/value_grad/TanhGrad"
  op: "TanhGrad"
  input: "model/layer_2/value"
  input: "gradients/Fill"
  attr {
    key: "T"
    value {
      type: DT_FLOAT
    }
  }
  attr {
    key: "_output_shapes"
    value {
      list {
        shape {
          dim {
            size: -1
          }
          dim {
            size: 1
          }
        }
      }
    }
  }
}
node {
  name: "gradients/model/layer_2/MatMul_grad/MatMul"
  op: "MatMul"
  input: "gradients/model/layer_2/value_grad/TanhGrad"
  input: "model/layer_2/W_2/read"
  attr {
    key: "T"
    value {
      type: DT_FLOAT
    }
  }
  attr {
    key: "_output_shapes"
    value {
      list {
        shape {
          dim {
            size: -1
          }
          dim {
            size: 100
          }
        }
      }
    }
  }
  attr {
    key: "transpose_a"
    value {
      b: false
    }
  }
  attr {
    key: "transpose_b"
    value {
      b: true
    }
  }
}
node {
  name: "gradients/model/layer_2/MatMul_grad/MatMul_1"
  op: "MatMul"
  input: "model/layer_1/hidden_1"
  input: "gradients/model/layer_2/value_grad/TanhGrad"
  attr {
    key: "T"
    value {
      type: DT_FLOAT
    }
  }
  attr {
    key: "_output_shapes"
    value {
      list {
        shape {
          dim {
            size: 100
          }
          dim {
            size: 1
          }
        }
      }
    }
  }
  attr {
    key: "transpose_a"
    value {
      b: true
    }
  }
  attr {
    key: "transpose_b"
    value {
      b: false
    }
  }
}
node {
  name: "gradients/model/layer_1/hidden_1_grad/ReluGrad"
  op: "ReluGrad"
  input: "gradients/model/layer_2/MatMul_grad/MatMul"
  input: "model/layer_1/hidden_1"
  attr {
    key: "T"
    value {
      type: DT_FLOAT
    }
  }
  attr {
    key: "_output_shapes"
    value {
      list {
        shape {
          dim {
            size: -1
          }
          dim {
            size: 100
          }
        }
      }
    }
  }
}
node {
  name: "gradients/model/layer_1/MatMul_grad/MatMul"
  op: "MatMul"
  input: "gradients/model/layer_1/hidden_1_grad/ReluGrad"
  input: "model/layer_1/W_1/read"
  attr {
    key: "T"
    value {
      type: DT_FLOAT
    }
  }
  attr {
    key: "_output_shapes"
    value {
      list {
        shape {
          dim {
            size: -1
          }
          dim {
            size: 131
          }
        }
      }
    }
  }
  attr {
    key: "transpose_a"
    value {
      b: false
    }
  }
  attr {
    key: "transpose_b"
    value {
      b: true
    }
  }
}
node {
  name: "gradients/model/layer_1/MatMul_grad/MatMul_1"
  op: "MatMul"
  input: "model/feature_vector_"
  input: "gradients/model/layer_1/hidden_1_grad/ReluGrad"
  attr {
    key: "T"
    value {
      type: DT_FLOAT
    }
  }
  attr {
    key: "_output_shapes"
    value {
      list {
        shape {
          dim {
            size: 131
          }
          dim {
            size: 100
          }
        }
      }
    }
  }
  attr {
    key: "transpose_a"
    value {
      b: true
    }
  }
  attr {
    key: "transpose_b"
    value {
      b: false
    }
  }
}
node {
  name: "Placeholder"
  op: "Placeholder"
  attr {
    key: "_output_shapes"
    value {
      list {
        shape {
          dim {
            size: 131
          }
          dim {
            size: 100
          }
        }
      }
    }
  }
  attr {
    key: "dtype"
    value {
      type: DT_FLOAT
    }
  }
  attr {
    key: "shape"
    value {
      shape {
        dim {
          size: 131
        }
        dim {
          size: 100
        }
      }
    }
  }
}
node {
  name: "Placeholder_1"
  op: "Placeholder"
  attr {
    key: "_output_shapes"
    value {
      list {
        shape {
          dim {
            size: 100
          }
          dim {
            size: 1
          }
        }
      }
    }
  }
  attr {
    key: "dtype"
    value {
      type: DT_FLOAT
    }
  }
  attr {
    key: "shape"
    value {
      shape {
        dim {
          size: 100
        }
        dim {
          size: 1
        }
      }
    }
  }
}
node {
  name: "beta1_power/initial_value"
  op: "Const"
  attr {
    key: "_class"
    value {
      list {
        s: "loc:@model/layer_1/W_1"
      }
    }
  }
  attr {
    key: "_output_shapes"
    value {
      list {
        shape {
        }
      }
    }
  }
  attr {
    key: "dtype"
    value {
      type: DT_FLOAT
    }
  }
  attr {
    key: "value"
    value {
      tensor {
        dtype: DT_FLOAT
        tensor_shape {
        }
        float_val: 0.8999999761581421
      }
    }
  }
}
node {
  name: "beta1_power"
  op: "VariableV2"
  attr {
    key: "_class"
    value {
      list {
        s: "loc:@model/layer_1/W_1"
      }
    }
  }
  attr {
    key: "_output_shapes"
    value {
      list {
        shape {
        }
      }
    }
  }
  attr {
    key: "container"
    value {
      s: ""
    }
  }
  attr {
    key: "dtype"
    value {
      type: DT_FLOAT
    }
  }
  attr {
    key: "shape"
    value {
      shape {
      }
    }
  }
  attr {
    key: "shared_name"
    value {
      s: ""
    }
  }
}
node {
  name: "beta1_power/Assign"
  op: "Assign"
  input: "beta1_power"
  input: "beta1_power/initial_value"
  attr {
    key: "T"
    value {
      type: DT_FLOAT
    }
  }
  attr {
    key: "_class"
    value {
      list {
        s: "loc:@model/layer_1/W_1"
      }
    }
  }
  attr {
    key: "_output_shapes"
    value {
      list {
        shape {
        }
      }
    }
  }
  attr {
    key: "use_locking"
    value {
      b: true
    }
  }
  attr {
    key: "validate_shape"
    value {
      b: true
    }
  }
}
node {
  name: "beta1_power/read"
  op: "Identity"
  input: "beta1_power"
  attr {
    key: "T"
    value {
      type: DT_FLOAT
    }
  }
  attr {
    key: "_class"
    value {
      list {
        s: "loc:@model/layer_1/W_1"
      }
    }
  }
  attr {
    key: "_output_shapes"
    value {
      list {
        shape {
        }
      }
    }
  }
}
node {
  name: "beta2_power/initial_value"
  op: "Const"
  attr {
    key: "_class"
    value {
      list {
        s: "loc:@model/layer_1/W_1"
      }
    }
  }
  attr {
    key: "_output_shapes"
    value {
      list {
        shape {
        }
      }
    }
  }
  attr {
    key: "dtype"
    value {
      type: DT_FLOAT
    }
  }
  attr {
    key: "value"
    value {
      tensor {
        dtype: DT_FLOAT
        tensor_shape {
        }
        float_val: 0.9990000128746033
      }
    }
  }
}
node {
  name: "beta2_power"
  op: "VariableV2"
  attr {
    key: "_class"
    value {
      list {
        s: "loc:@model/layer_1/W_1"
      }
    }
  }
  attr {
    key: "_output_shapes"
    value {
      list {
        shape {
        }
      }
    }
  }
  attr {
    key: "container"
    value {
      s: ""
    }
  }
  attr {
    key: "dtype"
    value {
      type: DT_FLOAT
    }
  }
  attr {
    key: "shape"
    value {
      shape {
      }
    }
  }
  attr {
    key: "shared_name"
    value {
      s: ""
    }
  }
}
node {
  name: "beta2_power/Assign"
  op: "Assign"
  input: "beta2_power"
  input: "beta2_power/initial_value"
  attr {
    key: "T"
    value {
      type: DT_FLOAT
    }
  }
  attr {
    key: "_class"
    value {
      list {
        s: "loc:@model/layer_1/W_1"
      }
    }
  }
  attr {
    key: "_output_shapes"
    value {
      list {
        shape {
        }
      }
    }
  }
  attr {
    key: "use_locking"
    value {
      b: true
    }
  }
  attr {
    key: "validate_shape"
    value {
      b: true
    }
  }
}
node {
  name: "beta2_power/read"
  op: "Identity"
  input: "beta2_power"
  attr {
    key: "T"
    value {
      type: DT_FLOAT
    }
  }
  attr {
    key: "_class"
    value {
      list {
        s: "loc:@model/layer_1/W_1"
      }
    }
  }
  attr {
    key: "_output_shapes"
    value {
      list {
        shape {
        }
      }
    }
  }
}
node {
  name: "model/layer_1/W_1/Adam/Initializer/zeros/shape_as_tensor"
  op: "Const"
  attr {
    key: "_class"
    value {
      list {
        s: "loc:@model/layer_1/W_1"
      }
    }
  }
  attr {
    key: "_output_shapes"
    value {
      list {
        shape {
          dim {
            size: 2
          }
        }
      }
    }
  }
  attr {
    key: "dtype"
    value {
      type: DT_INT32
    }
  }
  attr {
    key: "value"
    value {
      tensor {
        dtype: DT_INT32
        tensor_shape {
          dim {
            size: 2
          }
        }
        tensor_content: "\203\000\000\000d\000\000\000"
      }
    }
  }
}
node {
  name: "model/layer_1/W_1/Adam/Initializer/zeros/Const"
  op: "Const"
  attr {
    key: "_class"
    value {
      list {
        s: "loc:@model/layer_1/W_1"
      }
    }
  }
  attr {
    key: "_output_shapes"
    value {
      list {
        shape {
        }
      }
    }
  }
  attr {
    key: "dtype"
    value {
      type: DT_FLOAT
    }
  }
  attr {
    key: "value"
    value {
      tensor {
        dtype: DT_FLOAT
        tensor_shape {
        }
        float_val: 0.0
      }
    }
  }
}
node {
  name: "model/layer_1/W_1/Adam/Initializer/zeros"
  op: "Fill"
  input: "model/layer_1/W_1/Adam/Initializer/zeros/shape_as_tensor"
  input: "model/layer_1/W_1/Adam/Initializer/zeros/Const"
  attr {
    key: "T"
    value {
      type: DT_FLOAT
    }
  }
  attr {
    key: "_class"
    value {
      list {
        s: "loc:@model/layer_1/W_1"
      }
    }
  }
  attr {
    key: "_output_shapes"
    value {
      list {
        shape {
          dim {
            size: 131
          }
          dim {
            size: 100
          }
        }
      }
    }
  }
  attr {
    key: "index_type"
    value {
      type: DT_INT32
    }
  }
}
node {
  name: "model/layer_1/W_1/Adam"
  op: "VariableV2"
  attr {
    key: "_class"
    value {
      list {
        s: "loc:@model/layer_1/W_1"
      }
    }
  }
  attr {
    key: "_output_shapes"
    value {
      list {
        shape {
          dim {
            size: 131
          }
          dim {
            size: 100
          }
        }
      }
    }
  }
  attr {
    key: "container"
    value {
      s: ""
    }
  }
  attr {
    key: "dtype"
    value {
      type: DT_FLOAT
    }
  }
  attr {
    key: "shape"
    value {
      shape {
        dim {
          size: 131
        }
        dim {
          size: 100
        }
      }
    }
  }
  attr {
    key: "shared_name"
    value {
      s: ""
    }
  }
}
node {
  name: "model/layer_1/W_1/Adam/Assign"
  op: "Assign"
  input: "model/layer_1/W_1/Adam"
  input: "model/layer_1/W_1/Adam/Initializer/zeros"
  attr {
    key: "T"
    value {
      type: DT_FLOAT
    }
  }
  attr {
    key: "_class"
    value {
      list {
        s: "loc:@model/layer_1/W_1"
      }
    }
  }
  attr {
    key: "_output_shapes"
    value {
      list {
        shape {
          dim {
            size: 131
          }
          dim {
            size: 100
          }
        }
      }
    }
  }
  attr {
    key: "use_locking"
    value {
      b: true
    }
  }
  attr {
    key: "validate_shape"
    value {
      b: true
    }
  }
}
node {
  name: "model/layer_1/W_1/Adam/read"
  op: "Identity"
  input: "model/layer_1/W_1/Adam"
  attr {
    key: "T"
    value {
      type: DT_FLOAT
    }
  }
  attr {
    key: "_class"
    value {
      list {
        s: "loc:@model/layer_1/W_1"
      }
    }
  }
  attr {
    key: "_output_shapes"
    value {
      list {
        shape {
          dim {
            size: 131
          }
          dim {
            size: 100
          }
        }
      }
    }
  }
}
node {
  name: "model/layer_1/W_1/Adam_1/Initializer/zeros/shape_as_tensor"
  op: "Const"
  attr {
    key: "_class"
    value {
      list {
        s: "loc:@model/layer_1/W_1"
      }
    }
  }
  attr {
    key: "_output_shapes"
    value {
      list {
        shape {
          dim {
            size: 2
          }
        }
      }
    }
  }
  attr {
    key: "dtype"
    value {
      type: DT_INT32
    }
  }
  attr {
    key: "value"
    value {
      tensor {
        dtype: DT_INT32
        tensor_shape {
          dim {
            size: 2
          }
        }
        tensor_content: "\203\000\000\000d\000\000\000"
      }
    }
  }
}
node {
  name: "model/layer_1/W_1/Adam_1/Initializer/zeros/Const"
  op: "Const"
  attr {
    key: "_class"
    value {
      list {
        s: "loc:@model/layer_1/W_1"
      }
    }
  }
  attr {
    key: "_output_shapes"
    value {
      list {
        shape {
        }
      }
    }
  }
  attr {
    key: "dtype"
    value {
      type: DT_FLOAT
    }
  }
  attr {
    key: "value"
    value {
      tensor {
        dtype: DT_FLOAT
        tensor_shape {
        }
        float_val: 0.0
      }
    }
  }
}
node {
  name: "model/layer_1/W_1/Adam_1/Initializer/zeros"
  op: "Fill"
  input: "model/layer_1/W_1/Adam_1/Initializer/zeros/shape_as_tensor"
  input: "model/layer_1/W_1/Adam_1/Initializer/zeros/Const"
  attr {
    key: "T"
    value {
      type: DT_FLOAT
    }
  }
  attr {
    key: "_class"
    value {
      list {
        s: "loc:@model/layer_1/W_1"
      }
    }
  }
  attr {
    key: "_output_shapes"
    value {
      list {
        shape {
          dim {
            size: 131
          }
          dim {
            size: 100
          }
        }
      }
    }
  }
  attr {
    key: "index_type"
    value {
      type: DT_INT32
    }
  }
}
node {
  name: "model/layer_1/W_1/Adam_1"
  op: "VariableV2"
  attr {
    key: "_class"
    value {
      list {
        s: "loc:@model/layer_1/W_1"
      }
    }
  }
  attr {
    key: "_output_shapes"
    value {
      list {
        shape {
          dim {
            size: 131
          }
          dim {
            size: 100
          }
        }
      }
    }
  }
  attr {
    key: "container"
    value {
      s: ""
    }
  }
  attr {
    key: "dtype"
    value {
      type: DT_FLOAT
    }
  }
  attr {
    key: "shape"
    value {
      shape {
        dim {
          size: 131
        }
        dim {
          size: 100
        }
      }
    }
  }
  attr {
    key: "shared_name"
    value {
      s: ""
    }
  }
}
node {
  name: "model/layer_1/W_1/Adam_1/Assign"
  op: "Assign"
  input: "model/layer_1/W_1/Adam_1"
  input: "model/layer_1/W_1/Adam_1/Initializer/zeros"
  attr {
    key: "T"
    value {
      type: DT_FLOAT
    }
  }
  attr {
    key: "_class"
    value {
      list {
        s: "loc:@model/layer_1/W_1"
      }
    }
  }
  attr {
    key: "_output_shapes"
    value {
      list {
        shape {
          dim {
            size: 131
          }
          dim {
            size: 100
          }
        }
      }
    }
  }
  attr {
    key: "use_locking"
    value {
      b: true
    }
  }
  attr {
    key: "validate_shape"
    value {
      b: true
    }
  }
}
node {
  name: "model/layer_1/W_1/Adam_1/read"
  op: "Identity"
  input: "model/layer_1/W_1/Adam_1"
  attr {
    key: "T"
    value {
      type: DT_FLOAT
    }
  }
  attr {
    key: "_class"
    value {
      list {
        s: "loc:@model/layer_1/W_1"
      }
    }
  }
  attr {
    key: "_output_shapes"
    value {
      list {
        shape {
          dim {
            size: 131
          }
          dim {
            size: 100
          }
        }
      }
    }
  }
}
node {
  name: "model/layer_2/W_2/Adam/Initializer/zeros"
  op: "Const"
  attr {
    key: "_class"
    value {
      list {
        s: "loc:@model/layer_2/W_2"
      }
    }
  }
  attr {
    key: "_output_shapes"
    value {
      list {
        shape {
          dim {
            size: 100
          }
          dim {
            size: 1
          }
        }
      }
    }
  }
  attr {
    key: "dtype"
    value {
      type: DT_FLOAT
    }
  }
  attr {
    key: "value"
    value {
      tensor {
        dtype: DT_FLOAT
        tensor_shape {
          dim {
            size: 100
          }
          dim {
            size: 1
          }
        }
        float_val: 0.0
      }
    }
  }
}
node {
  name: "model/layer_2/W_2/Adam"
  op: "VariableV2"
  attr {
    key: "_class"
    value {
      list {
        s: "loc:@model/layer_2/W_2"
      }
    }
  }
  attr {
    key: "_output_shapes"
    value {
      list {
        shape {
          dim {
            size: 100
          }
          dim {
            size: 1
          }
        }
      }
    }
  }
  attr {
    key: "container"
    value {
      s: ""
    }
  }
  attr {
    key: "dtype"
    value {
      type: DT_FLOAT
    }
  }
  attr {
    key: "shape"
    value {
      shape {
        dim {
          size: 100
        }
        dim {
          size: 1
        }
      }
    }
  }
  attr {
    key: "shared_name"
    value {
      s: ""
    }
  }
}
node {
  name: "model/layer_2/W_2/Adam/Assign"
  op: "Assign"
  input: "model/layer_2/W_2/Adam"
  input: "model/layer_2/W_2/Adam/Initializer/zeros"
  attr {
    key: "T"
    value {
      type: DT_FLOAT
    }
  }
  attr {
    key: "_class"
    value {
      list {
        s: "loc:@model/layer_2/W_2"
      }
    }
  }
  attr {
    key: "_output_shapes"
    value {
      list {
        shape {
          dim {
            size: 100
          }
          dim {
            size: 1
          }
        }
      }
    }
  }
  attr {
    key: "use_locking"
    value {
      b: true
    }
  }
  attr {
    key: "validate_shape"
    value {
      b: true
    }
  }
}
node {
  name: "model/layer_2/W_2/Adam/read"
  op: "Identity"
  input: "model/layer_2/W_2/Adam"
  attr {
    key: "T"
    value {
      type: DT_FLOAT
    }
  }
  attr {
    key: "_class"
    value {
      list {
        s: "loc:@model/layer_2/W_2"
      }
    }
  }
  attr {
    key: "_output_shapes"
    value {
      list {
        shape {
          dim {
            size: 100
          }
          dim {
            size: 1
          }
        }
      }
    }
  }
}
node {
  name: "model/layer_2/W_2/Adam_1/Initializer/zeros"
  op: "Const"
  attr {
    key: "_class"
    value {
      list {
        s: "loc:@model/layer_2/W_2"
      }
    }
  }
  attr {
    key: "_output_shapes"
    value {
      list {
        shape {
          dim {
            size: 100
          }
          dim {
            size: 1
          }
        }
      }
    }
  }
  attr {
    key: "dtype"
    value {
      type: DT_FLOAT
    }
  }
  attr {
    key: "value"
    value {
      tensor {
        dtype: DT_FLOAT
        tensor_shape {
          dim {
            size: 100
          }
          dim {
            size: 1
          }
        }
        float_val: 0.0
      }
    }
  }
}
node {
  name: "model/layer_2/W_2/Adam_1"
  op: "VariableV2"
  attr {
    key: "_class"
    value {
      list {
        s: "loc:@model/layer_2/W_2"
      }
    }
  }
  attr {
    key: "_output_shapes"
    value {
      list {
        shape {
          dim {
            size: 100
          }
          dim {
            size: 1
          }
        }
      }
    }
  }
  attr {
    key: "container"
    value {
      s: ""
    }
  }
  attr {
    key: "dtype"
    value {
      type: DT_FLOAT
    }
  }
  attr {
    key: "shape"
    value {
      shape {
        dim {
          size: 100
        }
        dim {
          size: 1
        }
      }
    }
  }
  attr {
    key: "shared_name"
    value {
      s: ""
    }
  }
}
node {
  name: "model/layer_2/W_2/Adam_1/Assign"
  op: "Assign"
  input: "model/layer_2/W_2/Adam_1"
  input: "model/layer_2/W_2/Adam_1/Initializer/zeros"
  attr {
    key: "T"
    value {
      type: DT_FLOAT
    }
  }
  attr {
    key: "_class"
    value {
      list {
        s: "loc:@model/layer_2/W_2"
      }
    }
  }
  attr {
    key: "_output_shapes"
    value {
      list {
        shape {
          dim {
            size: 100
          }
          dim {
            size: 1
          }
        }
      }
    }
  }
  attr {
    key: "use_locking"
    value {
      b: true
    }
  }
  attr {
    key: "validate_shape"
    value {
      b: true
    }
  }
}
node {
  name: "model/layer_2/W_2/Adam_1/read"
  op: "Identity"
  input: "model/layer_2/W_2/Adam_1"
  attr {
    key: "T"
    value {
      type: DT_FLOAT
    }
  }
  attr {
    key: "_class"
    value {
      list {
        s: "loc:@model/layer_2/W_2"
      }
    }
  }
  attr {
    key: "_output_shapes"
    value {
      list {
        shape {
          dim {
            size: 100
          }
          dim {
            size: 1
          }
        }
      }
    }
  }
}
node {
  name: "apply_grads/learning_rate"
  op: "Const"
  attr {
    key: "_output_shapes"
    value {
      list {
        shape {
        }
      }
    }
  }
  attr {
    key: "dtype"
    value {
      type: DT_FLOAT
    }
  }
  attr {
    key: "value"
    value {
      tensor {
        dtype: DT_FLOAT
        tensor_shape {
        }
        float_val: 0.0010000000474974513
      }
    }
  }
}
node {
  name: "apply_grads/beta1"
  op: "Const"
  attr {
    key: "_output_shapes"
    value {
      list {
        shape {
        }
      }
    }
  }
  attr {
    key: "dtype"
    value {
      type: DT_FLOAT
    }
  }
  attr {
    key: "value"
    value {
      tensor {
        dtype: DT_FLOAT
        tensor_shape {
        }
        float_val: 0.8999999761581421
      }
    }
  }
}
node {
  name: "apply_grads/beta2"
  op: "Const"
  attr {
    key: "_output_shapes"
    value {
      list {
        shape {
        }
      }
    }
  }
  attr {
    key: "dtype"
    value {
      type: DT_FLOAT
    }
  }
  attr {
    key: "value"
    value {
      tensor {
        dtype: DT_FLOAT
        tensor_shape {
        }
        float_val: 0.9990000128746033
      }
    }
  }
}
node {
  name: "apply_grads/epsilon"
  op: "Const"
  attr {
    key: "_output_shapes"
    value {
      list {
        shape {
        }
      }
    }
  }
  attr {
    key: "dtype"
    value {
      type: DT_FLOAT
    }
  }
  attr {
    key: "value"
    value {
      tensor {
        dtype: DT_FLOAT
        tensor_shape {
        }
        float_val: 9.99999993922529e-09
      }
    }
  }
}
node {
  name: "apply_grads/update_model/layer_1/W_1/ApplyAdam"
  op: "ApplyAdam"
  input: "model/layer_1/W_1"
  input: "model/layer_1/W_1/Adam"
  input: "model/layer_1/W_1/Adam_1"
  input: "beta1_power/read"
  input: "beta2_power/read"
  input: "apply_grads/learning_rate"
  input: "apply_grads/beta1"
  input: "apply_grads/beta2"
  input: "apply_grads/epsilon"
  input: "Placeholder"
  attr {
    key: "T"
    value {
      type: DT_FLOAT
    }
  }
  attr {
    key: "_class"
    value {
      list {
        s: "loc:@model/layer_1/W_1"
      }
    }
  }
  attr {
    key: "_output_shapes"
    value {
      list {
        shape {
          dim {
            size: 131
          }
          dim {
            size: 100
          }
        }
      }
    }
  }
  attr {
    key: "use_locking"
    value {
      b: false
    }
  }
  attr {
    key: "use_nesterov"
    value {
      b: false
    }
  }
}
node {
  name: "apply_grads/update_model/layer_2/W_2/ApplyAdam"
  op: "ApplyAdam"
  input: "model/layer_2/W_2"
  input: "model/layer_2/W_2/Adam"
  input: "model/layer_2/W_2/Adam_1"
  input: "beta1_power/read"
  input: "beta2_power/read"
  input: "apply_grads/learning_rate"
  input: "apply_grads/beta1"
  input: "apply_grads/beta2"
  input: "apply_grads/epsilon"
  input: "Placeholder_1"
  attr {
    key: "T"
    value {
      type: DT_FLOAT
    }
  }
  attr {
    key: "_class"
    value {
      list {
        s: "loc:@model/layer_2/W_2"
      }
    }
  }
  attr {
    key: "_output_shapes"
    value {
      list {
        shape {
          dim {
            size: 100
          }
          dim {
            size: 1
          }
        }
      }
    }
  }
  attr {
    key: "use_locking"
    value {
      b: false
    }
  }
  attr {
    key: "use_nesterov"
    value {
      b: false
    }
  }
}
node {
  name: "apply_grads/mul"
  op: "Mul"
  input: "beta1_power/read"
  input: "apply_grads/beta1"
  input: "^apply_grads/update_model/layer_1/W_1/ApplyAdam"
  input: "^apply_grads/update_model/layer_2/W_2/ApplyAdam"
  attr {
    key: "T"
    value {
      type: DT_FLOAT
    }
  }
  attr {
    key: "_class"
    value {
      list {
        s: "loc:@model/layer_1/W_1"
      }
    }
  }
  attr {
    key: "_output_shapes"
    value {
      list {
        shape {
        }
      }
    }
  }
}
node {
  name: "apply_grads/Assign"
  op: "Assign"
  input: "beta1_power"
  input: "apply_grads/mul"
  attr {
    key: "T"
    value {
      type: DT_FLOAT
    }
  }
  attr {
    key: "_class"
    value {
      list {
        s: "loc:@model/layer_1/W_1"
      }
    }
  }
  attr {
    key: "_output_shapes"
    value {
      list {
        shape {
        }
      }
    }
  }
  attr {
    key: "use_locking"
    value {
      b: false
    }
  }
  attr {
    key: "validate_shape"
    value {
      b: true
    }
  }
}
node {
  name: "apply_grads/mul_1"
  op: "Mul"
  input: "beta2_power/read"
  input: "apply_grads/beta2"
  input: "^apply_grads/update_model/layer_1/W_1/ApplyAdam"
  input: "^apply_grads/update_model/layer_2/W_2/ApplyAdam"
  attr {
    key: "T"
    value {
      type: DT_FLOAT
    }
  }
  attr {
    key: "_class"
    value {
      list {
        s: "loc:@model/layer_1/W_1"
      }
    }
  }
  attr {
    key: "_output_shapes"
    value {
      list {
        shape {
        }
      }
    }
  }
}
node {
  name: "apply_grads/Assign_1"
  op: "Assign"
  input: "beta2_power"
  input: "apply_grads/mul_1"
  attr {
    key: "T"
    value {
      type: DT_FLOAT
    }
  }
  attr {
    key: "_class"
    value {
      list {
        s: "loc:@model/layer_1/W_1"
      }
    }
  }
  attr {
    key: "_output_shapes"
    value {
      list {
        shape {
        }
      }
    }
  }
  attr {
    key: "use_locking"
    value {
      b: false
    }
  }
  attr {
    key: "validate_shape"
    value {
      b: true
    }
  }
}
node {
  name: "apply_grads/update"
  op: "NoOp"
  input: "^apply_grads/Assign"
  input: "^apply_grads/Assign_1"
  input: "^apply_grads/update_model/layer_1/W_1/ApplyAdam"
  input: "^apply_grads/update_model/layer_2/W_2/ApplyAdam"
}
node {
  name: "apply_grads/value"
  op: "Const"
  input: "^apply_grads/update"
  attr {
    key: "_class"
    value {
      list {
        s: "loc:@global_step"
      }
    }
  }
  attr {
    key: "_output_shapes"
    value {
      list {
        shape {
        }
      }
    }
  }
  attr {
    key: "dtype"
    value {
      type: DT_INT64
    }
  }
  attr {
    key: "value"
    value {
      tensor {
        dtype: DT_INT64
        tensor_shape {
        }
        int64_val: 1
      }
    }
  }
}
node {
  name: "apply_grads"
  op: "AssignAdd"
  input: "global_step"
  input: "apply_grads/value"
  attr {
    key: "T"
    value {
      type: DT_INT64
    }
  }
  attr {
    key: "_class"
    value {
      list {
        s: "loc:@global_step"
      }
    }
  }
  attr {
    key: "_output_shapes"
    value {
      list {
        shape {
        }
      }
    }
  }
  attr {
    key: "use_locking"
    value {
      b: false
    }
  }
}
node {
  name: "global_step/IsVariableInitialized"
  op: "IsVariableInitialized"
  input: "global_step"
  attr {
    key: "_class"
    value {
      list {
        s: "loc:@global_step"
      }
    }
  }
  attr {
    key: "_output_shapes"
    value {
      list {
        shape {
        }
      }
    }
  }
  attr {
    key: "dtype"
    value {
      type: DT_INT64
    }
  }
}
node {
  name: "global_step/cond/Switch"
  op: "Switch"
  input: "global_step/IsVariableInitialized"
  input: "global_step/IsVariableInitialized"
  attr {
    key: "T"
    value {
      type: DT_BOOL
    }
  }
  attr {
    key: "_output_shapes"
    value {
      list {
        shape {
        }
        shape {
        }
      }
    }
  }
}
node {
  name: "global_step/cond/switch_t"
  op: "Identity"
  input: "global_step/cond/Switch:1"
  attr {
    key: "T"
    value {
      type: DT_BOOL
    }
  }
  attr {
    key: "_output_shapes"
    value {
      list {
        shape {
        }
      }
    }
  }
}
node {
  name: "global_step/cond/switch_f"
  op: "Identity"
  input: "global_step/cond/Switch"
  attr {
    key: "T"
    value {
      type: DT_BOOL
    }
  }
  attr {
    key: "_output_shapes"
    value {
      list {
        shape {
        }
      }
    }
  }
}
node {
  name: "global_step/cond/pred_id"
  op: "Identity"
  input: "global_step/IsVariableInitialized"
  attr {
    key: "T"
    value {
      type: DT_BOOL
    }
  }
  attr {
    key: "_output_shapes"
    value {
      list {
        shape {
        }
      }
    }
  }
}
node {
  name: "global_step/cond/read"
  op: "Identity"
  input: "global_step/cond/read/Switch:1"
  attr {
    key: "T"
    value {
      type: DT_INT64
    }
  }
  attr {
    key: "_output_shapes"
    value {
      list {
        shape {
        }
      }
    }
  }
}
node {
  name: "global_step/cond/read/Switch"
  op: "RefSwitch"
  input: "global_step"
  input: "global_step/cond/pred_id"
  attr {
    key: "T"
    value {
      type: DT_INT64
    }
  }
  attr {
    key: "_class"
    value {
      list {
        s: "loc:@global_step"
      }
    }
  }
  attr {
    key: "_output_shapes"
    value {
      list {
        shape {
        }
        shape {
        }
      }
    }
  }
}
node {
  name: "global_step/cond/Switch_1"
  op: "Switch"
  input: "global_step/Initializer/zeros"
  input: "global_step/cond/pred_id"
  attr {
    key: "T"
    value {
      type: DT_INT64
    }
  }
  attr {
    key: "_class"
    value {
      list {
        s: "loc:@global_step"
      }
    }
  }
  attr {
    key: "_output_shapes"
    value {
      list {
        shape {
        }
        shape {
        }
      }
    }
  }
}
node {
  name: "global_step/cond/Merge"
  op: "Merge"
  input: "global_step/cond/Switch_1"
  input: "global_step/cond/read"
  attr {
    key: "N"
    value {
      i: 2
    }
  }
  attr {
    key: "T"
    value {
      type: DT_INT64
    }
  }
  attr {
    key: "_output_shapes"
    value {
      list {
        shape {
        }
        shape {
        }
      }
    }
  }
}
node {
  name: "global_step/add/y"
  op: "Const"
  attr {
    key: "_output_shapes"
    value {
      list {
        shape {
        }
      }
    }
  }
  attr {
    key: "dtype"
    value {
      type: DT_INT64
    }
  }
  attr {
    key: "value"
    value {
      tensor {
        dtype: DT_INT64
        tensor_shape {
        }
        int64_val: 0
      }
    }
  }
}
node {
  name: "global_step/add"
  op: "Add"
  input: "global_step/cond/Merge"
  input: "global_step/add/y"
  attr {
    key: "T"
    value {
      type: DT_INT64
    }
  }
  attr {
    key: "_output_shapes"
    value {
      list {
        shape {
        }
      }
    }
  }
}
node {
  name: "init"
  op: "NoOp"
  input: "^beta1_power/Assign"
  input: "^beta2_power/Assign"
  input: "^global_step/Assign"
  input: "^model/layer_1/W_1/Adam/Assign"
  input: "^model/layer_1/W_1/Adam_1/Assign"
  input: "^model/layer_1/W_1/Assign"
  input: "^model/layer_2/W_2/Adam/Assign"
  input: "^model/layer_2/W_2/Adam_1/Assign"
  input: "^model/layer_2/W_2/Assign"
  input: "^random_agent_test_results/black_draws/Assign"
  input: "^random_agent_test_results/black_losses/Assign"
  input: "^random_agent_test_results/black_wins/Assign"
  input: "^random_agent_test_results/white_draws/Assign"
  input: "^random_agent_test_results/white_losses/Assign"
  input: "^random_agent_test_results/white_wins/Assign"
}
node {
  name: "init_1"
  op: "NoOp"
}
node {
  name: "group_deps"
  op: "NoOp"
  input: "^init"
  input: "^init_1"
}
node {
  name: "report_uninitialized_variables/IsVariableInitialized"
  op: "IsVariableInitialized"
  input: "model/layer_1/W_1"
  attr {
    key: "_class"
    value {
      list {
        s: "loc:@model/layer_1/W_1"
      }
    }
  }
  attr {
    key: "_output_shapes"
    value {
      list {
        shape {
        }
      }
    }
  }
  attr {
    key: "dtype"
    value {
      type: DT_FLOAT
    }
  }
}
node {
  name: "report_uninitialized_variables/IsVariableInitialized_1"
  op: "IsVariableInitialized"
  input: "model/layer_2/W_2"
  attr {
    key: "_class"
    value {
      list {
        s: "loc:@model/layer_2/W_2"
      }
    }
  }
  attr {
    key: "_output_shapes"
    value {
      list {
        shape {
        }
      }
    }
  }
  attr {
    key: "dtype"
    value {
      type: DT_FLOAT
    }
  }
}
node {
  name: "report_uninitialized_variables/IsVariableInitialized_2"
  op: "IsVariableInitialized"
  input: "global_step"
  attr {
    key: "_class"
    value {
      list {
        s: "loc:@global_step"
      }
    }
  }
  attr {
    key: "_output_shapes"
    value {
      list {
        shape {
        }
      }
    }
  }
  attr {
    key: "dtype"
    value {
      type: DT_INT64
    }
  }
}
node {
  name: "report_uninitialized_variables/IsVariableInitialized_3"
  op: "IsVariableInitialized"
  input: "random_agent_test_results/white_wins"
  attr {
    key: "_class"
    value {
      list {
        s: "loc:@random_agent_test_results/white_wins"
      }
    }
  }
  attr {
    key: "_output_shapes"
    value {
      list {
        shape {
        }
      }
    }
  }
  attr {
    key: "dtype"
    value {
      type: DT_INT32
    }
  }
}
node {
  name: "report_uninitialized_variables/IsVariableInitialized_4"
  op: "IsVariableInitialized"
  input: "random_agent_test_results/black_wins"
  attr {
    key: "_class"
    value {
      list {
        s: "loc:@random_agent_test_results/black_wins"
      }
    }
  }
  attr {
    key: "_output_shapes"
    value {
      list {
        shape {
        }
      }
    }
  }
  attr {
    key: "dtype"
    value {
      type: DT_INT32
    }
  }
}
node {
  name: "report_uninitialized_variables/IsVariableInitialized_5"
  op: "IsVariableInitialized"
  input: "random_agent_test_results/white_losses"
  attr {
    key: "_class"
    value {
      list {
        s: "loc:@random_agent_test_results/white_losses"
      }
    }
  }
  attr {
    key: "_output_shapes"
    value {
      list {
        shape {
        }
      }
    }
  }
  attr {
    key: "dtype"
    value {
      type: DT_INT32
    }
  }
}
node {
  name: "report_uninitialized_variables/IsVariableInitialized_6"
  op: "IsVariableInitialized"
  input: "random_agent_test_results/black_losses"
  attr {
    key: "_class"
    value {
      list {
        s: "loc:@random_agent_test_results/black_losses"
      }
    }
  }
  attr {
    key: "_output_shapes"
    value {
      list {
        shape {
        }
      }
    }
  }
  attr {
    key: "dtype"
    value {
      type: DT_INT32
    }
  }
}
node {
  name: "report_uninitialized_variables/IsVariableInitialized_7"
  op: "IsVariableInitialized"
  input: "random_agent_test_results/white_draws"
  attr {
    key: "_class"
    value {
      list {
        s: "loc:@random_agent_test_results/white_draws"
      }
    }
  }
  attr {
    key: "_output_shapes"
    value {
      list {
        shape {
        }
      }
    }
  }
  attr {
    key: "dtype"
    value {
      type: DT_INT32
    }
  }
}
node {
  name: "report_uninitialized_variables/IsVariableInitialized_8"
  op: "IsVariableInitialized"
  input: "random_agent_test_results/black_draws"
  attr {
    key: "_class"
    value {
      list {
        s: "loc:@random_agent_test_results/black_draws"
      }
    }
  }
  attr {
    key: "_output_shapes"
    value {
      list {
        shape {
        }
      }
    }
  }
  attr {
    key: "dtype"
    value {
      type: DT_INT32
    }
  }
}
node {
  name: "report_uninitialized_variables/IsVariableInitialized_9"
  op: "IsVariableInitialized"
  input: "beta1_power"
  attr {
    key: "_class"
    value {
      list {
        s: "loc:@model/layer_1/W_1"
      }
    }
  }
  attr {
    key: "_output_shapes"
    value {
      list {
        shape {
        }
      }
    }
  }
  attr {
    key: "dtype"
    value {
      type: DT_FLOAT
    }
  }
}
node {
  name: "report_uninitialized_variables/IsVariableInitialized_10"
  op: "IsVariableInitialized"
  input: "beta2_power"
  attr {
    key: "_class"
    value {
      list {
        s: "loc:@model/layer_1/W_1"
      }
    }
  }
  attr {
    key: "_output_shapes"
    value {
      list {
        shape {
        }
      }
    }
  }
  attr {
    key: "dtype"
    value {
      type: DT_FLOAT
    }
  }
}
node {
  name: "report_uninitialized_variables/IsVariableInitialized_11"
  op: "IsVariableInitialized"
  input: "model/layer_1/W_1/Adam"
  attr {
    key: "_class"
    value {
      list {
        s: "loc:@model/layer_1/W_1"
      }
    }
  }
  attr {
    key: "_output_shapes"
    value {
      list {
        shape {
        }
      }
    }
  }
  attr {
    key: "dtype"
    value {
      type: DT_FLOAT
    }
  }
}
node {
  name: "report_uninitialized_variables/IsVariableInitialized_12"
  op: "IsVariableInitialized"
  input: "model/layer_1/W_1/Adam_1"
  attr {
    key: "_class"
    value {
      list {
        s: "loc:@model/layer_1/W_1"
      }
    }
  }
  attr {
    key: "_output_shapes"
    value {
      list {
        shape {
        }
      }
    }
  }
  attr {
    key: "dtype"
    value {
      type: DT_FLOAT
    }
  }
}
node {
  name: "report_uninitialized_variables/IsVariableInitialized_13"
  op: "IsVariableInitialized"
  input: "model/layer_2/W_2/Adam"
  attr {
    key: "_class"
    value {
      list {
        s: "loc:@model/layer_2/W_2"
      }
    }
  }
  attr {
    key: "_output_shapes"
    value {
      list {
        shape {
        }
      }
    }
  }
  attr {
    key: "dtype"
    value {
      type: DT_FLOAT
    }
  }
}
node {
  name: "report_uninitialized_variables/IsVariableInitialized_14"
  op: "IsVariableInitialized"
  input: "model/layer_2/W_2/Adam_1"
  attr {
    key: "_class"
    value {
      list {
        s: "loc:@model/layer_2/W_2"
      }
    }
  }
  attr {
    key: "_output_shapes"
    value {
      list {
        shape {
        }
      }
    }
  }
  attr {
    key: "dtype"
    value {
      type: DT_FLOAT
    }
  }
}
node {
  name: "report_uninitialized_variables/stack"
  op: "Pack"
  input: "report_uninitialized_variables/IsVariableInitialized"
  input: "report_uninitialized_variables/IsVariableInitialized_1"
  input: "report_uninitialized_variables/IsVariableInitialized_2"
  input: "report_uninitialized_variables/IsVariableInitialized_3"
  input: "report_uninitialized_variables/IsVariableInitialized_4"
  input: "report_uninitialized_variables/IsVariableInitialized_5"
  input: "report_uninitialized_variables/IsVariableInitialized_6"
  input: "report_uninitialized_variables/IsVariableInitialized_7"
  input: "report_uninitialized_variables/IsVariableInitialized_8"
  input: "report_uninitialized_variables/IsVariableInitialized_9"
  input: "report_uninitialized_variables/IsVariableInitialized_10"
  input: "report_uninitialized_variables/IsVariableInitialized_11"
  input: "report_uninitialized_variables/IsVariableInitialized_12"
  input: "report_uninitialized_variables/IsVariableInitialized_13"
  input: "report_uninitialized_variables/IsVariableInitialized_14"
  device: "/device:CPU:0"
  attr {
    key: "N"
    value {
      i: 15
    }
  }
  attr {
    key: "T"
    value {
      type: DT_BOOL
    }
  }
  attr {
    key: "_output_shapes"
    value {
      list {
        shape {
          dim {
            size: 15
          }
        }
      }
    }
  }
  attr {
    key: "axis"
    value {
      i: 0
    }
  }
}
node {
  name: "report_uninitialized_variables/LogicalNot"
  op: "LogicalNot"
  input: "report_uninitialized_variables/stack"
  device: "/device:CPU:0"
  attr {
    key: "_output_shapes"
    value {
      list {
        shape {
          dim {
            size: 15
          }
        }
      }
    }
  }
}
node {
  name: "report_uninitialized_variables/Const"
  op: "Const"
  device: "/device:CPU:0"
  attr {
    key: "_output_shapes"
    value {
      list {
        shape {
          dim {
            size: 15
          }
        }
      }
    }
  }
  attr {
    key: "dtype"
    value {
      type: DT_STRING
    }
  }
  attr {
    key: "value"
    value {
      tensor {
        dtype: DT_STRING
        tensor_shape {
          dim {
            size: 15
          }
        }
        string_val: "model/layer_1/W_1"
        string_val: "model/layer_2/W_2"
        string_val: "global_step"
        string_val: "random_agent_test_results/white_wins"
        string_val: "random_agent_test_results/black_wins"
        string_val: "random_agent_test_results/white_losses"
        string_val: "random_agent_test_results/black_losses"
        string_val: "random_agent_test_results/white_draws"
        string_val: "random_agent_test_results/black_draws"
        string_val: "beta1_power"
        string_val: "beta2_power"
        string_val: "model/layer_1/W_1/Adam"
        string_val: "model/layer_1/W_1/Adam_1"
        string_val: "model/layer_2/W_2/Adam"
        string_val: "model/layer_2/W_2/Adam_1"
      }
    }
  }
}
node {
  name: "report_uninitialized_variables/boolean_mask/Shape"
  op: "Const"
  device: "/device:CPU:0"
  attr {
    key: "_output_shapes"
    value {
      list {
        shape {
          dim {
            size: 1
          }
        }
      }
    }
  }
  attr {
    key: "dtype"
    value {
      type: DT_INT32
    }
  }
  attr {
    key: "value"
    value {
      tensor {
        dtype: DT_INT32
        tensor_shape {
          dim {
            size: 1
          }
        }
        int_val: 15
      }
    }
  }
}
node {
  name: "report_uninitialized_variables/boolean_mask/strided_slice/stack"
  op: "Const"
  device: "/device:CPU:0"
  attr {
    key: "_output_shapes"
    value {
      list {
        shape {
          dim {
            size: 1
          }
        }
      }
    }
  }
  attr {
    key: "dtype"
    value {
      type: DT_INT32
    }
  }
  attr {
    key: "value"
    value {
      tensor {
        dtype: DT_INT32
        tensor_shape {
          dim {
            size: 1
          }
        }
        int_val: 0
      }
    }
  }
}
node {
  name: "report_uninitialized_variables/boolean_mask/strided_slice/stack_1"
  op: "Const"
  device: "/device:CPU:0"
  attr {
    key: "_output_shapes"
    value {
      list {
        shape {
          dim {
            size: 1
          }
        }
      }
    }
  }
  attr {
    key: "dtype"
    value {
      type: DT_INT32
    }
  }
  attr {
    key: "value"
    value {
      tensor {
        dtype: DT_INT32
        tensor_shape {
          dim {
            size: 1
          }
        }
        int_val: 1
      }
    }
  }
}
node {
  name: "report_uninitialized_variables/boolean_mask/strided_slice/stack_2"
  op: "Const"
  device: "/device:CPU:0"
  attr {
    key: "_output_shapes"
    value {
      list {
        shape {
          dim {
            size: 1
          }
        }
      }
    }
  }
  attr {
    key: "dtype"
    value {
      type: DT_INT32
    }
  }
  attr {
    key: "value"
    value {
      tensor {
        dtype: DT_INT32
        tensor_shape {
          dim {
            size: 1
          }
        }
        int_val: 1
      }
    }
  }
}
node {
  name: "report_uninitialized_variables/boolean_mask/strided_slice"
  op: "StridedSlice"
  input: "report_uninitialized_variables/boolean_mask/Shape"
  input: "report_uninitialized_variables/boolean_mask/strided_slice/stack"
  input: "report_uninitialized_variables/boolean_mask/strided_slice/stack_1"
  input: "report_uninitialized_variables/boolean_mask/strided_slice/stack_2"
  device: "/device:CPU:0"
  attr {
    key: "Index"
    value {
      type: DT_INT32
    }
  }
  attr {
    key: "T"
    value {
      type: DT_INT32
    }
  }
  attr {
    key: "_output_shapes"
    value {
      list {
        shape {
          dim {
            size: 1
          }
        }
      }
    }
  }
  attr {
    key: "begin_mask"
    value {
      i: 0
    }
  }
  attr {
    key: "ellipsis_mask"
    value {
      i: 0
    }
  }
  attr {
    key: "end_mask"
    value {
      i: 0
    }
  }
  attr {
    key: "new_axis_mask"
    value {
      i: 0
    }
  }
  attr {
    key: "shrink_axis_mask"
    value {
      i: 0
    }
  }
}
node {
  name: "report_uninitialized_variables/boolean_mask/Prod/reduction_indices"
  op: "Const"
  device: "/device:CPU:0"
  attr {
    key: "_output_shapes"
    value {
      list {
        shape {
          dim {
            size: 1
          }
        }
      }
    }
  }
  attr {
    key: "dtype"
    value {
      type: DT_INT32
    }
  }
  attr {
    key: "value"
    value {
      tensor {
        dtype: DT_INT32
        tensor_shape {
          dim {
            size: 1
          }
        }
        int_val: 0
      }
    }
  }
}
node {
  name: "report_uninitialized_variables/boolean_mask/Prod"
  op: "Prod"
  input: "report_uninitialized_variables/boolean_mask/strided_slice"
  input: "report_uninitialized_variables/boolean_mask/Prod/reduction_indices"
  device: "/device:CPU:0"
  attr {
    key: "T"
    value {
      type: DT_INT32
    }
  }
  attr {
    key: "Tidx"
    value {
      type: DT_INT32
    }
  }
  attr {
    key: "_output_shapes"
    value {
      list {
        shape {
        }
      }
    }
  }
  attr {
    key: "keep_dims"
    value {
      b: false
    }
  }
}
node {
  name: "report_uninitialized_variables/boolean_mask/Shape_1"
  op: "Const"
  device: "/device:CPU:0"
  attr {
    key: "_output_shapes"
    value {
      list {
        shape {
          dim {
            size: 1
          }
        }
      }
    }
  }
  attr {
    key: "dtype"
    value {
      type: DT_INT32
    }
  }
  attr {
    key: "value"
    value {
      tensor {
        dtype: DT_INT32
        tensor_shape {
          dim {
            size: 1
          }
        }
        int_val: 15
      }
    }
  }
}
node {
  name: "report_uninitialized_variables/boolean_mask/strided_slice_1/stack"
  op: "Const"
  device: "/device:CPU:0"
  attr {
    key: "_output_shapes"
    value {
      list {
        shape {
          dim {
            size: 1
          }
        }
      }
    }
  }
  attr {
    key: "dtype"
    value {
      type: DT_INT32
    }
  }
  attr {
    key: "value"
    value {
      tensor {
        dtype: DT_INT32
        tensor_shape {
          dim {
            size: 1
          }
        }
        int_val: 0
      }
    }
  }
}
node {
  name: "report_uninitialized_variables/boolean_mask/strided_slice_1/stack_1"
  op: "Const"
  device: "/device:CPU:0"
  attr {
    key: "_output_shapes"
    value {
      list {
        shape {
          dim {
            size: 1
          }
        }
      }
    }
  }
  attr {
    key: "dtype"
    value {
      type: DT_INT32
    }
  }
  attr {
    key: "value"
    value {
      tensor {
        dtype: DT_INT32
        tensor_shape {
          dim {
            size: 1
          }
        }
        int_val: 0
      }
    }
  }
}
node {
  name: "report_uninitialized_variables/boolean_mask/strided_slice_1/stack_2"
  op: "Const"
  device: "/device:CPU:0"
  attr {
    key: "_output_shapes"
    value {
      list {
        shape {
          dim {
            size: 1
          }
        }
      }
    }
  }
  attr {
    key: "dtype"
    value {
      type: DT_INT32
    }
  }
  attr {
    key: "value"
    value {
      tensor {
        dtype: DT_INT32
        tensor_shape {
          dim {
            size: 1
          }
        }
        int_val: 1
      }
    }
  }
}
node {
  name: "report_uninitialized_variables/boolean_mask/strided_slice_1"
  op: "StridedSlice"
  input: "report_uninitialized_variables/boolean_mask/Shape_1"
  input: "report_uninitialized_variables/boolean_mask/strided_slice_1/stack"
  input: "report_uninitialized_variables/boolean_mask/strided_slice_1/stack_1"
  input: "report_uninitialized_variables/boolean_mask/strided_slice_1/stack_2"
  device: "/device:CPU:0"
  attr {
    key: "Index"
    value {
      type: DT_INT32
    }
  }
  attr {
    key: "T"
    value {
      type: DT_INT32
    }
  }
  attr {
    key: "_output_shapes"
    value {
      list {
        shape {
          dim {
          }
        }
      }
    }
  }
  attr {
    key: "begin_mask"
    value {
      i: 1
    }
  }
  attr {
    key: "ellipsis_mask"
    value {
      i: 0
    }
  }
  attr {
    key: "end_mask"
    value {
      i: 0
    }
  }
  attr {
    key: "new_axis_mask"
    value {
      i: 0
    }
  }
  attr {
    key: "shrink_axis_mask"
    value {
      i: 0
    }
  }
}
node {
  name: "report_uninitialized_variables/boolean_mask/Shape_2"
  op: "Const"
  device: "/device:CPU:0"
  attr {
    key: "_output_shapes"
    value {
      list {
        shape {
          dim {
            size: 1
          }
        }
      }
    }
  }
  attr {
    key: "dtype"
    value {
      type: DT_INT32
    }
  }
  attr {
    key: "value"
    value {
      tensor {
        dtype: DT_INT32
        tensor_shape {
          dim {
            size: 1
          }
        }
        int_val: 15
      }
    }
  }
}
node {
  name: "report_uninitialized_variables/boolean_mask/strided_slice_2/stack"
  op: "Const"
  device: "/device:CPU:0"
  attr {
    key: "_output_shapes"
    value {
      list {
        shape {
          dim {
            size: 1
          }
        }
      }
    }
  }
  attr {
    key: "dtype"
    value {
      type: DT_INT32
    }
  }
  attr {
    key: "value"
    value {
      tensor {
        dtype: DT_INT32
        tensor_shape {
          dim {
            size: 1
          }
        }
        int_val: 1
      }
    }
  }
}
node {
  name: "report_uninitialized_variables/boolean_mask/strided_slice_2/stack_1"
  op: "Const"
  device: "/device:CPU:0"
  attr {
    key: "_output_shapes"
    value {
      list {
        shape {
          dim {
            size: 1
          }
        }
      }
    }
  }
  attr {
    key: "dtype"
    value {
      type: DT_INT32
    }
  }
  attr {
    key: "value"
    value {
      tensor {
        dtype: DT_INT32
        tensor_shape {
          dim {
            size: 1
          }
        }
        int_val: 0
      }
    }
  }
}
node {
  name: "report_uninitialized_variables/boolean_mask/strided_slice_2/stack_2"
  op: "Const"
  device: "/device:CPU:0"
  attr {
    key: "_output_shapes"
    value {
      list {
        shape {
          dim {
            size: 1
          }
        }
      }
    }
  }
  attr {
    key: "dtype"
    value {
      type: DT_INT32
    }
  }
  attr {
    key: "value"
    value {
      tensor {
        dtype: DT_INT32
        tensor_shape {
          dim {
            size: 1
          }
        }
        int_val: 1
      }
    }
  }
}
node {
  name: "report_uninitialized_variables/boolean_mask/strided_slice_2"
  op: "StridedSlice"
  input: "report_uninitialized_variables/boolean_mask/Shape_2"
  input: "report_uninitialized_variables/boolean_mask/strided_slice_2/stack"
  input: "report_uninitialized_variables/boolean_mask/strided_slice_2/stack_1"
  input: "report_uninitialized_variables/boolean_mask/strided_slice_2/stack_2"
  device: "/device:CPU:0"
  attr {
    key: "Index"
    value {
      type: DT_INT32
    }
  }
  attr {
    key: "T"
    value {
      type: DT_INT32
    }
  }
  attr {
    key: "_output_shapes"
    value {
      list {
        shape {
          dim {
          }
        }
      }
    }
  }
  attr {
    key: "begin_mask"
    value {
      i: 0
    }
  }
  attr {
    key: "ellipsis_mask"
    value {
      i: 0
    }
  }
  attr {
    key: "end_mask"
    value {
      i: 1
    }
  }
  attr {
    key: "new_axis_mask"
    value {
      i: 0
    }
  }
  attr {
    key: "shrink_axis_mask"
    value {
      i: 0
    }
  }
}
node {
  name: "report_uninitialized_variables/boolean_mask/concat/values_1"
  op: "Pack"
  input: "report_uninitialized_variables/boolean_mask/Prod"
  device: "/device:CPU:0"
  attr {
    key: "N"
    value {
      i: 1
    }
  }
  attr {
    key: "T"
    value {
      type: DT_INT32
    }
  }
  attr {
    key: "_output_shapes"
    value {
      list {
        shape {
          dim {
            size: 1
          }
        }
      }
    }
  }
  attr {
    key: "axis"
    value {
      i: 0
    }
  }
}
node {
  name: "report_uninitialized_variables/boolean_mask/concat/axis"
  op: "Const"
  device: "/device:CPU:0"
  attr {
    key: "_output_shapes"
    value {
      list {
        shape {
        }
      }
    }
  }
  attr {
    key: "dtype"
    value {
      type: DT_INT32
    }
  }
  attr {
    key: "value"
    value {
      tensor {
        dtype: DT_INT32
        tensor_shape {
        }
        int_val: 0
      }
    }
  }
}
node {
  name: "report_uninitialized_variables/boolean_mask/concat"
  op: "ConcatV2"
  input: "report_uninitialized_variables/boolean_mask/strided_slice_1"
  input: "report_uninitialized_variables/boolean_mask/concat/values_1"
  input: "report_uninitialized_variables/boolean_mask/strided_slice_2"
  input: "report_uninitialized_variables/boolean_mask/concat/axis"
  device: "/device:CPU:0"
  attr {
    key: "N"
    value {
      i: 3
    }
  }
  attr {
    key: "T"
    value {
      type: DT_INT32
    }
  }
  attr {
    key: "Tidx"
    value {
      type: DT_INT32
    }
  }
  attr {
    key: "_output_shapes"
    value {
      list {
        shape {
          dim {
            size: 1
          }
        }
      }
    }
  }
}
node {
  name: "report_uninitialized_variables/boolean_mask/Reshape"
  op: "Reshape"
  input: "report_uninitialized_variables/Const"
  input: "report_uninitialized_variables/boolean_mask/concat"
  device: "/device:CPU:0"
  attr {
    key: "T"
    value {
      type: DT_STRING
    }
  }
  attr {
    key: "Tshape"
    value {
      type: DT_INT32
    }
  }
  attr {
    key: "_output_shapes"
    value {
      list {
        shape {
          dim {
            size: 15
          }
        }
      }
    }
  }
}
node {
  name: "report_uninitialized_variables/boolean_mask/Reshape_1/shape"
  op: "Const"
  device: "/device:CPU:0"
  attr {
    key: "_output_shapes"
    value {
      list {
        shape {
          dim {
            size: 1
          }
        }
      }
    }
  }
  attr {
    key: "dtype"
    value {
      type: DT_INT32
    }
  }
  attr {
    key: "value"
    value {
      tensor {
        dtype: DT_INT32
        tensor_shape {
          dim {
            size: 1
          }
        }
        int_val: -1
      }
    }
  }
}
node {
  name: "report_uninitialized_variables/boolean_mask/Reshape_1"
  op: "Reshape"
  input: "report_uninitialized_variables/LogicalNot"
  input: "report_uninitialized_variables/boolean_mask/Reshape_1/shape"
  device: "/device:CPU:0"
  attr {
    key: "T"
    value {
      type: DT_BOOL
    }
  }
  attr {
    key: "Tshape"
    value {
      type: DT_INT32
    }
  }
  attr {
    key: "_output_shapes"
    value {
      list {
        shape {
          dim {
            size: 15
          }
        }
      }
    }
  }
}
node {
  name: "report_uninitialized_variables/boolean_mask/Where"
  op: "Where"
  input: "report_uninitialized_variables/boolean_mask/Reshape_1"
  device: "/device:CPU:0"
  attr {
    key: "T"
    value {
      type: DT_BOOL
    }
  }
  attr {
    key: "_output_shapes"
    value {
      list {
        shape {
          dim {
            size: -1
          }
          dim {
            size: 1
          }
        }
      }
    }
  }
}
node {
  name: "report_uninitialized_variables/boolean_mask/Squeeze"
  op: "Squeeze"
  input: "report_uninitialized_variables/boolean_mask/Where"
  device: "/device:CPU:0"
  attr {
    key: "T"
    value {
      type: DT_INT64
    }
  }
  attr {
    key: "_output_shapes"
    value {
      list {
        shape {
          dim {
            size: -1
          }
        }
      }
    }
  }
  attr {
    key: "squeeze_dims"
    value {
      list {
        i: 1
      }
    }
  }
}
node {
  name: "report_uninitialized_variables/boolean_mask/GatherV2/axis"
  op: "Const"
  device: "/device:CPU:0"
  attr {
    key: "_output_shapes"
    value {
      list {
        shape {
        }
      }
    }
  }
  attr {
    key: "dtype"
    value {
      type: DT_INT32
    }
  }
  attr {
    key: "value"
    value {
      tensor {
        dtype: DT_INT32
        tensor_shape {
        }
        int_val: 0
      }
    }
  }
}
node {
  name: "report_uninitialized_variables/boolean_mask/GatherV2"
  op: "GatherV2"
  input: "report_uninitialized_variables/boolean_mask/Reshape"
  input: "report_uninitialized_variables/boolean_mask/Squeeze"
  input: "report_uninitialized_variables/boolean_mask/GatherV2/axis"
  device: "/device:CPU:0"
  attr {
    key: "Taxis"
    value {
      type: DT_INT32
    }
  }
  attr {
    key: "Tindices"
    value {
      type: DT_INT64
    }
  }
  attr {
    key: "Tparams"
    value {
      type: DT_STRING
    }
  }
  attr {
    key: "_output_shapes"
    value {
      list {
        shape {
          dim {
            size: -1
          }
        }
      }
    }
  }
}
node {
  name: "report_uninitialized_resources/Const"
  op: "Const"
  device: "/device:CPU:0"
  attr {
    key: "_output_shapes"
    value {
      list {
        shape {
          dim {
          }
        }
      }
    }
  }
  attr {
    key: "dtype"
    value {
      type: DT_STRING
    }
  }
  attr {
    key: "value"
    value {
      tensor {
        dtype: DT_STRING
        tensor_shape {
          dim {
          }
        }
      }
    }
  }
}
node {
  name: "concat/axis"
  op: "Const"
  attr {
    key: "_output_shapes"
    value {
      list {
        shape {
        }
      }
    }
  }
  attr {
    key: "dtype"
    value {
      type: DT_INT32
    }
  }
  attr {
    key: "value"
    value {
      tensor {
        dtype: DT_INT32
        tensor_shape {
        }
        int_val: 0
      }
    }
  }
}
node {
  name: "concat"
  op: "ConcatV2"
  input: "report_uninitialized_variables/boolean_mask/GatherV2"
  input: "report_uninitialized_resources/Const"
  input: "concat/axis"
  attr {
    key: "N"
    value {
      i: 2
    }
  }
  attr {
    key: "T"
    value {
      type: DT_STRING
    }
  }
  attr {
    key: "Tidx"
    value {
      type: DT_INT32
    }
  }
  attr {
    key: "_output_shapes"
    value {
      list {
        shape {
          dim {
            size: -1
          }
        }
      }
    }
  }
}
node {
  name: "report_uninitialized_variables_1/IsVariableInitialized"
  op: "IsVariableInitialized"
  input: "model/layer_1/W_1"
  attr {
    key: "_class"
    value {
      list {
        s: "loc:@model/layer_1/W_1"
      }
    }
  }
  attr {
    key: "_output_shapes"
    value {
      list {
        shape {
        }
      }
    }
  }
  attr {
    key: "dtype"
    value {
      type: DT_FLOAT
    }
  }
}
node {
  name: "report_uninitialized_variables_1/IsVariableInitialized_1"
  op: "IsVariableInitialized"
  input: "model/layer_2/W_2"
  attr {
    key: "_class"
    value {
      list {
        s: "loc:@model/layer_2/W_2"
      }
    }
  }
  attr {
    key: "_output_shapes"
    value {
      list {
        shape {
        }
      }
    }
  }
  attr {
    key: "dtype"
    value {
      type: DT_FLOAT
    }
  }
}
node {
  name: "report_uninitialized_variables_1/IsVariableInitialized_2"
  op: "IsVariableInitialized"
  input: "global_step"
  attr {
    key: "_class"
    value {
      list {
        s: "loc:@global_step"
      }
    }
  }
  attr {
    key: "_output_shapes"
    value {
      list {
        shape {
        }
      }
    }
  }
  attr {
    key: "dtype"
    value {
      type: DT_INT64
    }
  }
}
node {
  name: "report_uninitialized_variables_1/IsVariableInitialized_3"
  op: "IsVariableInitialized"
  input: "random_agent_test_results/white_wins"
  attr {
    key: "_class"
    value {
      list {
        s: "loc:@random_agent_test_results/white_wins"
      }
    }
  }
  attr {
    key: "_output_shapes"
    value {
      list {
        shape {
        }
      }
    }
  }
  attr {
    key: "dtype"
    value {
      type: DT_INT32
    }
  }
}
node {
  name: "report_uninitialized_variables_1/IsVariableInitialized_4"
  op: "IsVariableInitialized"
  input: "random_agent_test_results/black_wins"
  attr {
    key: "_class"
    value {
      list {
        s: "loc:@random_agent_test_results/black_wins"
      }
    }
  }
  attr {
    key: "_output_shapes"
    value {
      list {
        shape {
        }
      }
    }
  }
  attr {
    key: "dtype"
    value {
      type: DT_INT32
    }
  }
}
node {
  name: "report_uninitialized_variables_1/IsVariableInitialized_5"
  op: "IsVariableInitialized"
  input: "random_agent_test_results/white_losses"
  attr {
    key: "_class"
    value {
      list {
        s: "loc:@random_agent_test_results/white_losses"
      }
    }
  }
  attr {
    key: "_output_shapes"
    value {
      list {
        shape {
        }
      }
    }
  }
  attr {
    key: "dtype"
    value {
      type: DT_INT32
    }
  }
}
node {
  name: "report_uninitialized_variables_1/IsVariableInitialized_6"
  op: "IsVariableInitialized"
  input: "random_agent_test_results/black_losses"
  attr {
    key: "_class"
    value {
      list {
        s: "loc:@random_agent_test_results/black_losses"
      }
    }
  }
  attr {
    key: "_output_shapes"
    value {
      list {
        shape {
        }
      }
    }
  }
  attr {
    key: "dtype"
    value {
      type: DT_INT32
    }
  }
}
node {
  name: "report_uninitialized_variables_1/IsVariableInitialized_7"
  op: "IsVariableInitialized"
  input: "random_agent_test_results/white_draws"
  attr {
    key: "_class"
    value {
      list {
        s: "loc:@random_agent_test_results/white_draws"
      }
    }
  }
  attr {
    key: "_output_shapes"
    value {
      list {
        shape {
        }
      }
    }
  }
  attr {
    key: "dtype"
    value {
      type: DT_INT32
    }
  }
}
node {
  name: "report_uninitialized_variables_1/IsVariableInitialized_8"
  op: "IsVariableInitialized"
  input: "random_agent_test_results/black_draws"
  attr {
    key: "_class"
    value {
      list {
        s: "loc:@random_agent_test_results/black_draws"
      }
    }
  }
  attr {
    key: "_output_shapes"
    value {
      list {
        shape {
        }
      }
    }
  }
  attr {
    key: "dtype"
    value {
      type: DT_INT32
    }
  }
}
node {
  name: "report_uninitialized_variables_1/IsVariableInitialized_9"
  op: "IsVariableInitialized"
  input: "beta1_power"
  attr {
    key: "_class"
    value {
      list {
        s: "loc:@model/layer_1/W_1"
      }
    }
  }
  attr {
    key: "_output_shapes"
    value {
      list {
        shape {
        }
      }
    }
  }
  attr {
    key: "dtype"
    value {
      type: DT_FLOAT
    }
  }
}
node {
  name: "report_uninitialized_variables_1/IsVariableInitialized_10"
  op: "IsVariableInitialized"
  input: "beta2_power"
  attr {
    key: "_class"
    value {
      list {
        s: "loc:@model/layer_1/W_1"
      }
    }
  }
  attr {
    key: "_output_shapes"
    value {
      list {
        shape {
        }
      }
    }
  }
  attr {
    key: "dtype"
    value {
      type: DT_FLOAT
    }
  }
}
node {
  name: "report_uninitialized_variables_1/IsVariableInitialized_11"
  op: "IsVariableInitialized"
  input: "model/layer_1/W_1/Adam"
  attr {
    key: "_class"
    value {
      list {
        s: "loc:@model/layer_1/W_1"
      }
    }
  }
  attr {
    key: "_output_shapes"
    value {
      list {
        shape {
        }
      }
    }
  }
  attr {
    key: "dtype"
    value {
      type: DT_FLOAT
    }
  }
}
node {
  name: "report_uninitialized_variables_1/IsVariableInitialized_12"
  op: "IsVariableInitialized"
  input: "model/layer_1/W_1/Adam_1"
  attr {
    key: "_class"
    value {
      list {
        s: "loc:@model/layer_1/W_1"
      }
    }
  }
  attr {
    key: "_output_shapes"
    value {
      list {
        shape {
        }
      }
    }
  }
  attr {
    key: "dtype"
    value {
      type: DT_FLOAT
    }
  }
}
node {
  name: "report_uninitialized_variables_1/IsVariableInitialized_13"
  op: "IsVariableInitialized"
  input: "model/layer_2/W_2/Adam"
  attr {
    key: "_class"
    value {
      list {
        s: "loc:@model/layer_2/W_2"
      }
    }
  }
  attr {
    key: "_output_shapes"
    value {
      list {
        shape {
        }
      }
    }
  }
  attr {
    key: "dtype"
    value {
      type: DT_FLOAT
    }
  }
}
node {
  name: "report_uninitialized_variables_1/IsVariableInitialized_14"
  op: "IsVariableInitialized"
  input: "model/layer_2/W_2/Adam_1"
  attr {
    key: "_class"
    value {
      list {
        s: "loc:@model/layer_2/W_2"
      }
    }
  }
  attr {
    key: "_output_shapes"
    value {
      list {
        shape {
        }
      }
    }
  }
  attr {
    key: "dtype"
    value {
      type: DT_FLOAT
    }
  }
}
node {
  name: "report_uninitialized_variables_1/stack"
  op: "Pack"
  input: "report_uninitialized_variables_1/IsVariableInitialized"
  input: "report_uninitialized_variables_1/IsVariableInitialized_1"
  input: "report_uninitialized_variables_1/IsVariableInitialized_2"
  input: "report_uninitialized_variables_1/IsVariableInitialized_3"
  input: "report_uninitialized_variables_1/IsVariableInitialized_4"
  input: "report_uninitialized_variables_1/IsVariableInitialized_5"
  input: "report_uninitialized_variables_1/IsVariableInitialized_6"
  input: "report_uninitialized_variables_1/IsVariableInitialized_7"
  input: "report_uninitialized_variables_1/IsVariableInitialized_8"
  input: "report_uninitialized_variables_1/IsVariableInitialized_9"
  input: "report_uninitialized_variables_1/IsVariableInitialized_10"
  input: "report_uninitialized_variables_1/IsVariableInitialized_11"
  input: "report_uninitialized_variables_1/IsVariableInitialized_12"
  input: "report_uninitialized_variables_1/IsVariableInitialized_13"
  input: "report_uninitialized_variables_1/IsVariableInitialized_14"
  device: "/device:CPU:0"
  attr {
    key: "N"
    value {
      i: 15
    }
  }
  attr {
    key: "T"
    value {
      type: DT_BOOL
    }
  }
  attr {
    key: "_output_shapes"
    value {
      list {
        shape {
          dim {
            size: 15
          }
        }
      }
    }
  }
  attr {
    key: "axis"
    value {
      i: 0
    }
  }
}
node {
  name: "report_uninitialized_variables_1/LogicalNot"
  op: "LogicalNot"
  input: "report_uninitialized_variables_1/stack"
  device: "/device:CPU:0"
  attr {
    key: "_output_shapes"
    value {
      list {
        shape {
          dim {
            size: 15
          }
        }
      }
    }
  }
}
node {
  name: "report_uninitialized_variables_1/Const"
  op: "Const"
  device: "/device:CPU:0"
  attr {
    key: "_output_shapes"
    value {
      list {
        shape {
          dim {
            size: 15
          }
        }
      }
    }
  }
  attr {
    key: "dtype"
    value {
      type: DT_STRING
    }
  }
  attr {
    key: "value"
    value {
      tensor {
        dtype: DT_STRING
        tensor_shape {
          dim {
            size: 15
          }
        }
        string_val: "model/layer_1/W_1"
        string_val: "model/layer_2/W_2"
        string_val: "global_step"
        string_val: "random_agent_test_results/white_wins"
        string_val: "random_agent_test_results/black_wins"
        string_val: "random_agent_test_results/white_losses"
        string_val: "random_agent_test_results/black_losses"
        string_val: "random_agent_test_results/white_draws"
        string_val: "random_agent_test_results/black_draws"
        string_val: "beta1_power"
        string_val: "beta2_power"
        string_val: "model/layer_1/W_1/Adam"
        string_val: "model/layer_1/W_1/Adam_1"
        string_val: "model/layer_2/W_2/Adam"
        string_val: "model/layer_2/W_2/Adam_1"
      }
    }
  }
}
node {
  name: "report_uninitialized_variables_1/boolean_mask/Shape"
  op: "Const"
  device: "/device:CPU:0"
  attr {
    key: "_output_shapes"
    value {
      list {
        shape {
          dim {
            size: 1
          }
        }
      }
    }
  }
  attr {
    key: "dtype"
    value {
      type: DT_INT32
    }
  }
  attr {
    key: "value"
    value {
      tensor {
        dtype: DT_INT32
        tensor_shape {
          dim {
            size: 1
          }
        }
        int_val: 15
      }
    }
  }
}
node {
  name: "report_uninitialized_variables_1/boolean_mask/strided_slice/stack"
  op: "Const"
  device: "/device:CPU:0"
  attr {
    key: "_output_shapes"
    value {
      list {
        shape {
          dim {
            size: 1
          }
        }
      }
    }
  }
  attr {
    key: "dtype"
    value {
      type: DT_INT32
    }
  }
  attr {
    key: "value"
    value {
      tensor {
        dtype: DT_INT32
        tensor_shape {
          dim {
            size: 1
          }
        }
        int_val: 0
      }
    }
  }
}
node {
  name: "report_uninitialized_variables_1/boolean_mask/strided_slice/stack_1"
  op: "Const"
  device: "/device:CPU:0"
  attr {
    key: "_output_shapes"
    value {
      list {
        shape {
          dim {
            size: 1
          }
        }
      }
    }
  }
  attr {
    key: "dtype"
    value {
      type: DT_INT32
    }
  }
  attr {
    key: "value"
    value {
      tensor {
        dtype: DT_INT32
        tensor_shape {
          dim {
            size: 1
          }
        }
        int_val: 1
      }
    }
  }
}
node {
  name: "report_uninitialized_variables_1/boolean_mask/strided_slice/stack_2"
  op: "Const"
  device: "/device:CPU:0"
  attr {
    key: "_output_shapes"
    value {
      list {
        shape {
          dim {
            size: 1
          }
        }
      }
    }
  }
  attr {
    key: "dtype"
    value {
      type: DT_INT32
    }
  }
  attr {
    key: "value"
    value {
      tensor {
        dtype: DT_INT32
        tensor_shape {
          dim {
            size: 1
          }
        }
        int_val: 1
      }
    }
  }
}
node {
  name: "report_uninitialized_variables_1/boolean_mask/strided_slice"
  op: "StridedSlice"
  input: "report_uninitialized_variables_1/boolean_mask/Shape"
  input: "report_uninitialized_variables_1/boolean_mask/strided_slice/stack"
  input: "report_uninitialized_variables_1/boolean_mask/strided_slice/stack_1"
  input: "report_uninitialized_variables_1/boolean_mask/strided_slice/stack_2"
  device: "/device:CPU:0"
  attr {
    key: "Index"
    value {
      type: DT_INT32
    }
  }
  attr {
    key: "T"
    value {
      type: DT_INT32
    }
  }
  attr {
    key: "_output_shapes"
    value {
      list {
        shape {
          dim {
            size: 1
          }
        }
      }
    }
  }
  attr {
    key: "begin_mask"
    value {
      i: 0
    }
  }
  attr {
    key: "ellipsis_mask"
    value {
      i: 0
    }
  }
  attr {
    key: "end_mask"
    value {
      i: 0
    }
  }
  attr {
    key: "new_axis_mask"
    value {
      i: 0
    }
  }
  attr {
    key: "shrink_axis_mask"
    value {
      i: 0
    }
  }
}
node {
  name: "report_uninitialized_variables_1/boolean_mask/Prod/reduction_indices"
  op: "Const"
  device: "/device:CPU:0"
  attr {
    key: "_output_shapes"
    value {
      list {
        shape {
          dim {
            size: 1
          }
        }
      }
    }
  }
  attr {
    key: "dtype"
    value {
      type: DT_INT32
    }
  }
  attr {
    key: "value"
    value {
      tensor {
        dtype: DT_INT32
        tensor_shape {
          dim {
            size: 1
          }
        }
        int_val: 0
      }
    }
  }
}
node {
  name: "report_uninitialized_variables_1/boolean_mask/Prod"
  op: "Prod"
  input: "report_uninitialized_variables_1/boolean_mask/strided_slice"
  input: "report_uninitialized_variables_1/boolean_mask/Prod/reduction_indices"
  device: "/device:CPU:0"
  attr {
    key: "T"
    value {
      type: DT_INT32
    }
  }
  attr {
    key: "Tidx"
    value {
      type: DT_INT32
    }
  }
  attr {
    key: "_output_shapes"
    value {
      list {
        shape {
        }
      }
    }
  }
  attr {
    key: "keep_dims"
    value {
      b: false
    }
  }
}
node {
  name: "report_uninitialized_variables_1/boolean_mask/Shape_1"
  op: "Const"
  device: "/device:CPU:0"
  attr {
    key: "_output_shapes"
    value {
      list {
        shape {
          dim {
            size: 1
          }
        }
      }
    }
  }
  attr {
    key: "dtype"
    value {
      type: DT_INT32
    }
  }
  attr {
    key: "value"
    value {
      tensor {
        dtype: DT_INT32
        tensor_shape {
          dim {
            size: 1
          }
        }
        int_val: 15
      }
    }
  }
}
node {
  name: "report_uninitialized_variables_1/boolean_mask/strided_slice_1/stack"
  op: "Const"
  device: "/device:CPU:0"
  attr {
    key: "_output_shapes"
    value {
      list {
        shape {
          dim {
            size: 1
          }
        }
      }
    }
  }
  attr {
    key: "dtype"
    value {
      type: DT_INT32
    }
  }
  attr {
    key: "value"
    value {
      tensor {
        dtype: DT_INT32
        tensor_shape {
          dim {
            size: 1
          }
        }
        int_val: 0
      }
    }
  }
}
node {
  name: "report_uninitialized_variables_1/boolean_mask/strided_slice_1/stack_1"
  op: "Const"
  device: "/device:CPU:0"
  attr {
    key: "_output_shapes"
    value {
      list {
        shape {
          dim {
            size: 1
          }
        }
      }
    }
  }
  attr {
    key: "dtype"
    value {
      type: DT_INT32
    }
  }
  attr {
    key: "value"
    value {
      tensor {
        dtype: DT_INT32
        tensor_shape {
          dim {
            size: 1
          }
        }
        int_val: 0
      }
    }
  }
}
node {
  name: "report_uninitialized_variables_1/boolean_mask/strided_slice_1/stack_2"
  op: "Const"
  device: "/device:CPU:0"
  attr {
    key: "_output_shapes"
    value {
      list {
        shape {
          dim {
            size: 1
          }
        }
      }
    }
  }
  attr {
    key: "dtype"
    value {
      type: DT_INT32
    }
  }
  attr {
    key: "value"
    value {
      tensor {
        dtype: DT_INT32
        tensor_shape {
          dim {
            size: 1
          }
        }
        int_val: 1
      }
    }
  }
}
node {
  name: "report_uninitialized_variables_1/boolean_mask/strided_slice_1"
  op: "StridedSlice"
  input: "report_uninitialized_variables_1/boolean_mask/Shape_1"
  input: "report_uninitialized_variables_1/boolean_mask/strided_slice_1/stack"
  input: "report_uninitialized_variables_1/boolean_mask/strided_slice_1/stack_1"
  input: "report_uninitialized_variables_1/boolean_mask/strided_slice_1/stack_2"
  device: "/device:CPU:0"
  attr {
    key: "Index"
    value {
      type: DT_INT32
    }
  }
  attr {
    key: "T"
    value {
      type: DT_INT32
    }
  }
  attr {
    key: "_output_shapes"
    value {
      list {
        shape {
          dim {
          }
        }
      }
    }
  }
  attr {
    key: "begin_mask"
    value {
      i: 1
    }
  }
  attr {
    key: "ellipsis_mask"
    value {
      i: 0
    }
  }
  attr {
    key: "end_mask"
    value {
      i: 0
    }
  }
  attr {
    key: "new_axis_mask"
    value {
      i: 0
    }
  }
  attr {
    key: "shrink_axis_mask"
    value {
      i: 0
    }
  }
}
node {
  name: "report_uninitialized_variables_1/boolean_mask/Shape_2"
  op: "Const"
  device: "/device:CPU:0"
  attr {
    key: "_output_shapes"
    value {
      list {
        shape {
          dim {
            size: 1
          }
        }
      }
    }
  }
  attr {
    key: "dtype"
    value {
      type: DT_INT32
    }
  }
  attr {
    key: "value"
    value {
      tensor {
        dtype: DT_INT32
        tensor_shape {
          dim {
            size: 1
          }
        }
        int_val: 15
      }
    }
  }
}
node {
  name: "report_uninitialized_variables_1/boolean_mask/strided_slice_2/stack"
  op: "Const"
  device: "/device:CPU:0"
  attr {
    key: "_output_shapes"
    value {
      list {
        shape {
          dim {
            size: 1
          }
        }
      }
    }
  }
  attr {
    key: "dtype"
    value {
      type: DT_INT32
    }
  }
  attr {
    key: "value"
    value {
      tensor {
        dtype: DT_INT32
        tensor_shape {
          dim {
            size: 1
          }
        }
        int_val: 1
      }
    }
  }
}
node {
  name: "report_uninitialized_variables_1/boolean_mask/strided_slice_2/stack_1"
  op: "Const"
  device: "/device:CPU:0"
  attr {
    key: "_output_shapes"
    value {
      list {
        shape {
          dim {
            size: 1
          }
        }
      }
    }
  }
  attr {
    key: "dtype"
    value {
      type: DT_INT32
    }
  }
  attr {
    key: "value"
    value {
      tensor {
        dtype: DT_INT32
        tensor_shape {
          dim {
            size: 1
          }
        }
        int_val: 0
      }
    }
  }
}
node {
  name: "report_uninitialized_variables_1/boolean_mask/strided_slice_2/stack_2"
  op: "Const"
  device: "/device:CPU:0"
  attr {
    key: "_output_shapes"
    value {
      list {
        shape {
          dim {
            size: 1
          }
        }
      }
    }
  }
  attr {
    key: "dtype"
    value {
      type: DT_INT32
    }
  }
  attr {
    key: "value"
    value {
      tensor {
        dtype: DT_INT32
        tensor_shape {
          dim {
            size: 1
          }
        }
        int_val: 1
      }
    }
  }
}
node {
  name: "report_uninitialized_variables_1/boolean_mask/strided_slice_2"
  op: "StridedSlice"
  input: "report_uninitialized_variables_1/boolean_mask/Shape_2"
  input: "report_uninitialized_variables_1/boolean_mask/strided_slice_2/stack"
  input: "report_uninitialized_variables_1/boolean_mask/strided_slice_2/stack_1"
  input: "report_uninitialized_variables_1/boolean_mask/strided_slice_2/stack_2"
  device: "/device:CPU:0"
  attr {
    key: "Index"
    value {
      type: DT_INT32
    }
  }
  attr {
    key: "T"
    value {
      type: DT_INT32
    }
  }
  attr {
    key: "_output_shapes"
    value {
      list {
        shape {
          dim {
          }
        }
      }
    }
  }
  attr {
    key: "begin_mask"
    value {
      i: 0
    }
  }
  attr {
    key: "ellipsis_mask"
    value {
      i: 0
    }
  }
  attr {
    key: "end_mask"
    value {
      i: 1
    }
  }
  attr {
    key: "new_axis_mask"
    value {
      i: 0
    }
  }
  attr {
    key: "shrink_axis_mask"
    value {
      i: 0
    }
  }
}
node {
  name: "report_uninitialized_variables_1/boolean_mask/concat/values_1"
  op: "Pack"
  input: "report_uninitialized_variables_1/boolean_mask/Prod"
  device: "/device:CPU:0"
  attr {
    key: "N"
    value {
      i: 1
    }
  }
  attr {
    key: "T"
    value {
      type: DT_INT32
    }
  }
  attr {
    key: "_output_shapes"
    value {
      list {
        shape {
          dim {
            size: 1
          }
        }
      }
    }
  }
  attr {
    key: "axis"
    value {
      i: 0
    }
  }
}
node {
  name: "report_uninitialized_variables_1/boolean_mask/concat/axis"
  op: "Const"
  device: "/device:CPU:0"
  attr {
    key: "_output_shapes"
    value {
      list {
        shape {
        }
      }
    }
  }
  attr {
    key: "dtype"
    value {
      type: DT_INT32
    }
  }
  attr {
    key: "value"
    value {
      tensor {
        dtype: DT_INT32
        tensor_shape {
        }
        int_val: 0
      }
    }
  }
}
node {
  name: "report_uninitialized_variables_1/boolean_mask/concat"
  op: "ConcatV2"
  input: "report_uninitialized_variables_1/boolean_mask/strided_slice_1"
  input: "report_uninitialized_variables_1/boolean_mask/concat/values_1"
  input: "report_uninitialized_variables_1/boolean_mask/strided_slice_2"
  input: "report_uninitialized_variables_1/boolean_mask/concat/axis"
  device: "/device:CPU:0"
  attr {
    key: "N"
    value {
      i: 3
    }
  }
  attr {
    key: "T"
    value {
      type: DT_INT32
    }
  }
  attr {
    key: "Tidx"
    value {
      type: DT_INT32
    }
  }
  attr {
    key: "_output_shapes"
    value {
      list {
        shape {
          dim {
            size: 1
          }
        }
      }
    }
  }
}
node {
  name: "report_uninitialized_variables_1/boolean_mask/Reshape"
  op: "Reshape"
  input: "report_uninitialized_variables_1/Const"
  input: "report_uninitialized_variables_1/boolean_mask/concat"
  device: "/device:CPU:0"
  attr {
    key: "T"
    value {
      type: DT_STRING
    }
  }
  attr {
    key: "Tshape"
    value {
      type: DT_INT32
    }
  }
  attr {
    key: "_output_shapes"
    value {
      list {
        shape {
          dim {
            size: 15
          }
        }
      }
    }
  }
}
node {
  name: "report_uninitialized_variables_1/boolean_mask/Reshape_1/shape"
  op: "Const"
  device: "/device:CPU:0"
  attr {
    key: "_output_shapes"
    value {
      list {
        shape {
          dim {
            size: 1
          }
        }
      }
    }
  }
  attr {
    key: "dtype"
    value {
      type: DT_INT32
    }
  }
  attr {
    key: "value"
    value {
      tensor {
        dtype: DT_INT32
        tensor_shape {
          dim {
            size: 1
          }
        }
        int_val: -1
      }
    }
  }
}
node {
  name: "report_uninitialized_variables_1/boolean_mask/Reshape_1"
  op: "Reshape"
  input: "report_uninitialized_variables_1/LogicalNot"
  input: "report_uninitialized_variables_1/boolean_mask/Reshape_1/shape"
  device: "/device:CPU:0"
  attr {
    key: "T"
    value {
      type: DT_BOOL
    }
  }
  attr {
    key: "Tshape"
    value {
      type: DT_INT32
    }
  }
  attr {
    key: "_output_shapes"
    value {
      list {
        shape {
          dim {
            size: 15
          }
        }
      }
    }
  }
}
node {
  name: "report_uninitialized_variables_1/boolean_mask/Where"
  op: "Where"
  input: "report_uninitialized_variables_1/boolean_mask/Reshape_1"
  device: "/device:CPU:0"
  attr {
    key: "T"
    value {
      type: DT_BOOL
    }
  }
  attr {
    key: "_output_shapes"
    value {
      list {
        shape {
          dim {
            size: -1
          }
          dim {
            size: 1
          }
        }
      }
    }
  }
}
node {
  name: "report_uninitialized_variables_1/boolean_mask/Squeeze"
  op: "Squeeze"
  input: "report_uninitialized_variables_1/boolean_mask/Where"
  device: "/device:CPU:0"
  attr {
    key: "T"
    value {
      type: DT_INT64
    }
  }
  attr {
    key: "_output_shapes"
    value {
      list {
        shape {
          dim {
            size: -1
          }
        }
      }
    }
  }
  attr {
    key: "squeeze_dims"
    value {
      list {
        i: 1
      }
    }
  }
}
node {
  name: "report_uninitialized_variables_1/boolean_mask/GatherV2/axis"
  op: "Const"
  device: "/device:CPU:0"
  attr {
    key: "_output_shapes"
    value {
      list {
        shape {
        }
      }
    }
  }
  attr {
    key: "dtype"
    value {
      type: DT_INT32
    }
  }
  attr {
    key: "value"
    value {
      tensor {
        dtype: DT_INT32
        tensor_shape {
        }
        int_val: 0
      }
    }
  }
}
node {
  name: "report_uninitialized_variables_1/boolean_mask/GatherV2"
  op: "GatherV2"
  input: "report_uninitialized_variables_1/boolean_mask/Reshape"
  input: "report_uninitialized_variables_1/boolean_mask/Squeeze"
  input: "report_uninitialized_variables_1/boolean_mask/GatherV2/axis"
  device: "/device:CPU:0"
  attr {
    key: "Taxis"
    value {
      type: DT_INT32
    }
  }
  attr {
    key: "Tindices"
    value {
      type: DT_INT64
    }
  }
  attr {
    key: "Tparams"
    value {
      type: DT_STRING
    }
  }
  attr {
    key: "_output_shapes"
    value {
      list {
        shape {
          dim {
            size: -1
          }
        }
      }
    }
  }
}
node {
  name: "report_uninitialized_resources_1/Const"
  op: "Const"
  device: "/device:CPU:0"
  attr {
    key: "_output_shapes"
    value {
      list {
        shape {
          dim {
          }
        }
      }
    }
  }
  attr {
    key: "dtype"
    value {
      type: DT_STRING
    }
  }
  attr {
    key: "value"
    value {
      tensor {
        dtype: DT_STRING
        tensor_shape {
          dim {
          }
        }
      }
    }
  }
}
node {
  name: "concat_1/axis"
  op: "Const"
  attr {
    key: "_output_shapes"
    value {
      list {
        shape {
        }
      }
    }
  }
  attr {
    key: "dtype"
    value {
      type: DT_INT32
    }
  }
  attr {
    key: "value"
    value {
      tensor {
        dtype: DT_INT32
        tensor_shape {
        }
        int_val: 0
      }
    }
  }
}
node {
  name: "concat_1"
  op: "ConcatV2"
  input: "report_uninitialized_variables_1/boolean_mask/GatherV2"
  input: "report_uninitialized_resources_1/Const"
  input: "concat_1/axis"
  attr {
    key: "N"
    value {
      i: 2
    }
  }
  attr {
    key: "T"
    value {
      type: DT_STRING
    }
  }
  attr {
    key: "Tidx"
    value {
      type: DT_INT32
    }
  }
  attr {
    key: "_output_shapes"
    value {
      list {
        shape {
          dim {
            size: -1
          }
        }
      }
    }
  }
}
node {
  name: "init_2"
  op: "NoOp"
}
node {
  name: "init_all_tables"
  op: "NoOp"
}
node {
  name: "init_3"
  op: "NoOp"
}
node {
  name: "group_deps_1"
  op: "NoOp"
  input: "^init_2"
  input: "^init_3"
  input: "^init_all_tables"
}
node {
  name: "Merge/MergeSummary"
  op: "MergeSummary"
  input: "model/layer_1/W_1_1"
  input: "model/layer_2/W_2_1"
  input: "random_agent_test_results/player_white_wins"
  input: "random_agent_test_results/player_white_draws"
  input: "random_agent_test_results/player_white_losses"
  input: "random_agent_test_results/player_black_wins"
  input: "random_agent_test_results/player_black_draws"
  input: "random_agent_test_results/player_black_losses"
  attr {
    key: "N"
    value {
      i: 8
    }
  }
  attr {
    key: "_output_shapes"
    value {
      list {
        shape {
        }
      }
    }
  }
}
node {
  name: "save/filename/input"
  op: "Const"
  attr {
    key: "_output_shapes"
    value {
      list {
        shape {
        }
      }
    }
  }
  attr {
    key: "dtype"
    value {
      type: DT_STRING
    }
  }
  attr {
    key: "value"
    value {
      tensor {
        dtype: DT_STRING
        tensor_shape {
        }
        string_val: "model"
      }
    }
  }
}
node {
  name: "save/filename"
  op: "PlaceholderWithDefault"
  input: "save/filename/input"
  attr {
    key: "_output_shapes"
    value {
      list {
        shape {
        }
      }
    }
  }
  attr {
    key: "dtype"
    value {
      type: DT_STRING
    }
  }
  attr {
    key: "shape"
    value {
      shape {
      }
    }
  }
}
node {
  name: "save/Const"
  op: "PlaceholderWithDefault"
  input: "save/filename"
  attr {
    key: "_output_shapes"
    value {
      list {
        shape {
        }
      }
    }
  }
  attr {
    key: "dtype"
    value {
      type: DT_STRING
    }
  }
  attr {
    key: "shape"
    value {
      shape {
      }
    }
  }
}
node {
  name: "save/StringJoin/inputs_1"
  op: "Const"
  attr {
    key: "_output_shapes"
    value {
      list {
        shape {
        }
      }
    }
  }
  attr {
    key: "dtype"
    value {
      type: DT_STRING
    }
  }
  attr {
    key: "value"
    value {
      tensor {
        dtype: DT_STRING
        tensor_shape {
        }
        string_val: "_temp_a364b4bf52e94215b163b078067f0ef7/part"
      }
    }
  }
}
node {
  name: "save/StringJoin"
  op: "StringJoin"
  input: "save/Const"
  input: "save/StringJoin/inputs_1"
  attr {
    key: "N"
    value {
      i: 2
    }
  }
  attr {
    key: "_output_shapes"
    value {
      list {
        shape {
        }
      }
    }
  }
  attr {
    key: "separator"
    value {
      s: ""
    }
  }
}
node {
  name: "save/num_shards"
  op: "Const"
  attr {
    key: "_output_shapes"
    value {
      list {
        shape {
        }
      }
    }
  }
  attr {
    key: "dtype"
    value {
      type: DT_INT32
    }
  }
  attr {
    key: "value"
    value {
      tensor {
        dtype: DT_INT32
        tensor_shape {
        }
        int_val: 1
      }
    }
  }
}
node {
  name: "save/ShardedFilename/shard"
  op: "Const"
  device: "/device:CPU:0"
  attr {
    key: "_output_shapes"
    value {
      list {
        shape {
        }
      }
    }
  }
  attr {
    key: "dtype"
    value {
      type: DT_INT32
    }
  }
  attr {
    key: "value"
    value {
      tensor {
        dtype: DT_INT32
        tensor_shape {
        }
        int_val: 0
      }
    }
  }
}
node {
  name: "save/ShardedFilename"
  op: "ShardedFilename"
  input: "save/StringJoin"
  input: "save/ShardedFilename/shard"
  input: "save/num_shards"
  device: "/device:CPU:0"
  attr {
    key: "_output_shapes"
    value {
      list {
        shape {
        }
      }
    }
  }
}
node {
  name: "save/SaveV2/tensor_names"
  op: "Const"
  device: "/device:CPU:0"
  attr {
    key: "_output_shapes"
    value {
      list {
        shape {
          dim {
            size: 15
          }
        }
      }
    }
  }
  attr {
    key: "dtype"
    value {
      type: DT_STRING
    }
  }
  attr {
    key: "value"
    value {
      tensor {
        dtype: DT_STRING
        tensor_shape {
          dim {
            size: 15
          }
        }
        string_val: "beta1_power"
        string_val: "beta2_power"
        string_val: "global_step"
        string_val: "model/layer_1/W_1"
        string_val: "model/layer_1/W_1/Adam"
        string_val: "model/layer_1/W_1/Adam_1"
        string_val: "model/layer_2/W_2"
        string_val: "model/layer_2/W_2/Adam"
        string_val: "model/layer_2/W_2/Adam_1"
        string_val: "random_agent_test_results/black_draws"
        string_val: "random_agent_test_results/black_losses"
        string_val: "random_agent_test_results/black_wins"
        string_val: "random_agent_test_results/white_draws"
        string_val: "random_agent_test_results/white_losses"
        string_val: "random_agent_test_results/white_wins"
      }
    }
  }
}
node {
  name: "save/SaveV2/shape_and_slices"
  op: "Const"
  device: "/device:CPU:0"
  attr {
    key: "_output_shapes"
    value {
      list {
        shape {
          dim {
            size: 15
          }
        }
      }
    }
  }
  attr {
    key: "dtype"
    value {
      type: DT_STRING
    }
  }
  attr {
    key: "value"
    value {
      tensor {
        dtype: DT_STRING
        tensor_shape {
          dim {
            size: 15
          }
        }
        string_val: ""
        string_val: ""
        string_val: ""
        string_val: ""
        string_val: ""
        string_val: ""
        string_val: ""
        string_val: ""
        string_val: ""
        string_val: ""
        string_val: ""
        string_val: ""
        string_val: ""
        string_val: ""
        string_val: ""
      }
    }
  }
}
node {
  name: "save/SaveV2"
  op: "SaveV2"
  input: "save/ShardedFilename"
  input: "save/SaveV2/tensor_names"
  input: "save/SaveV2/shape_and_slices"
  input: "beta1_power"
  input: "beta2_power"
  input: "global_step"
  input: "model/layer_1/W_1"
  input: "model/layer_1/W_1/Adam"
  input: "model/layer_1/W_1/Adam_1"
  input: "model/layer_2/W_2"
  input: "model/layer_2/W_2/Adam"
  input: "model/layer_2/W_2/Adam_1"
  input: "random_agent_test_results/black_draws"
  input: "random_agent_test_results/black_losses"
  input: "random_agent_test_results/black_wins"
  input: "random_agent_test_results/white_draws"
  input: "random_agent_test_results/white_losses"
  input: "random_agent_test_results/white_wins"
  device: "/device:CPU:0"
  attr {
    key: "dtypes"
    value {
      list {
        type: DT_FLOAT
        type: DT_FLOAT
        type: DT_INT64
        type: DT_FLOAT
        type: DT_FLOAT
        type: DT_FLOAT
        type: DT_FLOAT
        type: DT_FLOAT
        type: DT_FLOAT
        type: DT_INT32
        type: DT_INT32
        type: DT_INT32
        type: DT_INT32
        type: DT_INT32
        type: DT_INT32
      }
    }
  }
}
node {
  name: "save/control_dependency"
  op: "Identity"
  input: "save/ShardedFilename"
  input: "^save/SaveV2"
  device: "/device:CPU:0"
  attr {
    key: "T"
    value {
      type: DT_STRING
    }
  }
  attr {
    key: "_class"
    value {
      list {
        s: "loc:@save/ShardedFilename"
      }
    }
  }
  attr {
    key: "_output_shapes"
    value {
      list {
        shape {
        }
      }
    }
  }
}
node {
  name: "save/MergeV2Checkpoints/checkpoint_prefixes"
  op: "Pack"
  input: "save/ShardedFilename"
  input: "^save/control_dependency"
  device: "/device:CPU:0"
  attr {
    key: "N"
    value {
      i: 1
    }
  }
  attr {
    key: "T"
    value {
      type: DT_STRING
    }
  }
  attr {
    key: "_output_shapes"
    value {
      list {
        shape {
          dim {
            size: 1
          }
        }
      }
    }
  }
  attr {
    key: "axis"
    value {
      i: 0
    }
  }
}
node {
  name: "save/MergeV2Checkpoints"
  op: "MergeV2Checkpoints"
  input: "save/MergeV2Checkpoints/checkpoint_prefixes"
  input: "save/Const"
  device: "/device:CPU:0"
  attr {
    key: "delete_old_dirs"
    value {
      b: true
    }
  }
}
node {
  name: "save/Identity"
  op: "Identity"
  input: "save/Const"
  input: "^save/MergeV2Checkpoints"
  input: "^save/control_dependency"
  device: "/device:CPU:0"
  attr {
    key: "T"
    value {
      type: DT_STRING
    }
  }
  attr {
    key: "_output_shapes"
    value {
      list {
        shape {
        }
      }
    }
  }
}
node {
  name: "save/RestoreV2/tensor_names"
  op: "Const"
  device: "/device:CPU:0"
  attr {
    key: "_output_shapes"
    value {
      list {
        shape {
          dim {
            size: 15
          }
        }
      }
    }
  }
  attr {
    key: "dtype"
    value {
      type: DT_STRING
    }
  }
  attr {
    key: "value"
    value {
      tensor {
        dtype: DT_STRING
        tensor_shape {
          dim {
            size: 15
          }
        }
        string_val: "beta1_power"
        string_val: "beta2_power"
        string_val: "global_step"
        string_val: "model/layer_1/W_1"
        string_val: "model/layer_1/W_1/Adam"
        string_val: "model/layer_1/W_1/Adam_1"
        string_val: "model/layer_2/W_2"
        string_val: "model/layer_2/W_2/Adam"
        string_val: "model/layer_2/W_2/Adam_1"
        string_val: "random_agent_test_results/black_draws"
        string_val: "random_agent_test_results/black_losses"
        string_val: "random_agent_test_results/black_wins"
        string_val: "random_agent_test_results/white_draws"
        string_val: "random_agent_test_results/white_losses"
        string_val: "random_agent_test_results/white_wins"
      }
    }
  }
}
node {
  name: "save/RestoreV2/shape_and_slices"
  op: "Const"
  device: "/device:CPU:0"
  attr {
    key: "_output_shapes"
    value {
      list {
        shape {
          dim {
            size: 15
          }
        }
      }
    }
  }
  attr {
    key: "dtype"
    value {
      type: DT_STRING
    }
  }
  attr {
    key: "value"
    value {
      tensor {
        dtype: DT_STRING
        tensor_shape {
          dim {
            size: 15
          }
        }
        string_val: ""
        string_val: ""
        string_val: ""
        string_val: ""
        string_val: ""
        string_val: ""
        string_val: ""
        string_val: ""
        string_val: ""
        string_val: ""
        string_val: ""
        string_val: ""
        string_val: ""
        string_val: ""
        string_val: ""
      }
    }
  }
}
node {
  name: "save/RestoreV2"
  op: "RestoreV2"
  input: "save/Const"
  input: "save/RestoreV2/tensor_names"
  input: "save/RestoreV2/shape_and_slices"
  device: "/device:CPU:0"
  attr {
    key: "_output_shapes"
    value {
      list {
        shape {
          unknown_rank: true
        }
        shape {
          unknown_rank: true
        }
        shape {
          unknown_rank: true
        }
        shape {
          unknown_rank: true
        }
        shape {
          unknown_rank: true
        }
        shape {
          unknown_rank: true
        }
        shape {
          unknown_rank: true
        }
        shape {
          unknown_rank: true
        }
        shape {
          unknown_rank: true
        }
        shape {
          unknown_rank: true
        }
        shape {
          unknown_rank: true
        }
        shape {
          unknown_rank: true
        }
        shape {
          unknown_rank: true
        }
        shape {
          unknown_rank: true
        }
        shape {
          unknown_rank: true
        }
      }
    }
  }
  attr {
    key: "dtypes"
    value {
      list {
        type: DT_FLOAT
        type: DT_FLOAT
        type: DT_INT64
        type: DT_FLOAT
        type: DT_FLOAT
        type: DT_FLOAT
        type: DT_FLOAT
        type: DT_FLOAT
        type: DT_FLOAT
        type: DT_INT32
        type: DT_INT32
        type: DT_INT32
        type: DT_INT32
        type: DT_INT32
        type: DT_INT32
      }
    }
  }
}
node {
  name: "save/Assign"
  op: "Assign"
  input: "beta1_power"
  input: "save/RestoreV2"
  attr {
    key: "T"
    value {
      type: DT_FLOAT
    }
  }
  attr {
    key: "_class"
    value {
      list {
        s: "loc:@model/layer_1/W_1"
      }
    }
  }
  attr {
    key: "_output_shapes"
    value {
      list {
        shape {
        }
      }
    }
  }
  attr {
    key: "use_locking"
    value {
      b: true
    }
  }
  attr {
    key: "validate_shape"
    value {
      b: true
    }
  }
}
node {
  name: "save/Assign_1"
  op: "Assign"
  input: "beta2_power"
  input: "save/RestoreV2:1"
  attr {
    key: "T"
    value {
      type: DT_FLOAT
    }
  }
  attr {
    key: "_class"
    value {
      list {
        s: "loc:@model/layer_1/W_1"
      }
    }
  }
  attr {
    key: "_output_shapes"
    value {
      list {
        shape {
        }
      }
    }
  }
  attr {
    key: "use_locking"
    value {
      b: true
    }
  }
  attr {
    key: "validate_shape"
    value {
      b: true
    }
  }
}
node {
  name: "save/Assign_2"
  op: "Assign"
  input: "global_step"
  input: "save/RestoreV2:2"
  attr {
    key: "T"
    value {
      type: DT_INT64
    }
  }
  attr {
    key: "_class"
    value {
      list {
        s: "loc:@global_step"
      }
    }
  }
  attr {
    key: "_output_shapes"
    value {
      list {
        shape {
        }
      }
    }
  }
  attr {
    key: "use_locking"
    value {
      b: true
    }
  }
  attr {
    key: "validate_shape"
    value {
      b: true
    }
  }
}
node {
  name: "save/Assign_3"
  op: "Assign"
  input: "model/layer_1/W_1"
  input: "save/RestoreV2:3"
  attr {
    key: "T"
    value {
      type: DT_FLOAT
    }
  }
  attr {
    key: "_class"
    value {
      list {
        s: "loc:@model/layer_1/W_1"
      }
    }
  }
  attr {
    key: "_output_shapes"
    value {
      list {
        shape {
          dim {
            size: 131
          }
          dim {
            size: 100
          }
        }
      }
    }
  }
  attr {
    key: "use_locking"
    value {
      b: true
    }
  }
  attr {
    key: "validate_shape"
    value {
      b: true
    }
  }
}
node {
  name: "save/Assign_4"
  op: "Assign"
  input: "model/layer_1/W_1/Adam"
  input: "save/RestoreV2:4"
  attr {
    key: "T"
    value {
      type: DT_FLOAT
    }
  }
  attr {
    key: "_class"
    value {
      list {
        s: "loc:@model/layer_1/W_1"
      }
    }
  }
  attr {
    key: "_output_shapes"
    value {
      list {
        shape {
          dim {
            size: 131
          }
          dim {
            size: 100
          }
        }
      }
    }
  }
  attr {
    key: "use_locking"
    value {
      b: true
    }
  }
  attr {
    key: "validate_shape"
    value {
      b: true
    }
  }
}
node {
  name: "save/Assign_5"
  op: "Assign"
  input: "model/layer_1/W_1/Adam_1"
  input: "save/RestoreV2:5"
  attr {
    key: "T"
    value {
      type: DT_FLOAT
    }
  }
  attr {
    key: "_class"
    value {
      list {
        s: "loc:@model/layer_1/W_1"
      }
    }
  }
  attr {
    key: "_output_shapes"
    value {
      list {
        shape {
          dim {
            size: 131
          }
          dim {
            size: 100
          }
        }
      }
    }
  }
  attr {
    key: "use_locking"
    value {
      b: true
    }
  }
  attr {
    key: "validate_shape"
    value {
      b: true
    }
  }
}
node {
  name: "save/Assign_6"
  op: "Assign"
  input: "model/layer_2/W_2"
  input: "save/RestoreV2:6"
  attr {
    key: "T"
    value {
      type: DT_FLOAT
    }
  }
  attr {
    key: "_class"
    value {
      list {
        s: "loc:@model/layer_2/W_2"
      }
    }
  }
  attr {
    key: "_output_shapes"
    value {
      list {
        shape {
          dim {
            size: 100
          }
          dim {
            size: 1
          }
        }
      }
    }
  }
  attr {
    key: "use_locking"
    value {
      b: true
    }
  }
  attr {
    key: "validate_shape"
    value {
      b: true
    }
  }
}
node {
  name: "save/Assign_7"
  op: "Assign"
  input: "model/layer_2/W_2/Adam"
  input: "save/RestoreV2:7"
  attr {
    key: "T"
    value {
      type: DT_FLOAT
    }
  }
  attr {
    key: "_class"
    value {
      list {
        s: "loc:@model/layer_2/W_2"
      }
    }
  }
  attr {
    key: "_output_shapes"
    value {
      list {
        shape {
          dim {
            size: 100
          }
          dim {
            size: 1
          }
        }
      }
    }
  }
  attr {
    key: "use_locking"
    value {
      b: true
    }
  }
  attr {
    key: "validate_shape"
    value {
      b: true
    }
  }
}
node {
  name: "save/Assign_8"
  op: "Assign"
  input: "model/layer_2/W_2/Adam_1"
  input: "save/RestoreV2:8"
  attr {
    key: "T"
    value {
      type: DT_FLOAT
    }
  }
  attr {
    key: "_class"
    value {
      list {
        s: "loc:@model/layer_2/W_2"
      }
    }
  }
  attr {
    key: "_output_shapes"
    value {
      list {
        shape {
          dim {
            size: 100
          }
          dim {
            size: 1
          }
        }
      }
    }
  }
  attr {
    key: "use_locking"
    value {
      b: true
    }
  }
  attr {
    key: "validate_shape"
    value {
      b: true
    }
  }
}
node {
  name: "save/Assign_9"
  op: "Assign"
  input: "random_agent_test_results/black_draws"
  input: "save/RestoreV2:9"
  attr {
    key: "T"
    value {
      type: DT_INT32
    }
  }
  attr {
    key: "_class"
    value {
      list {
        s: "loc:@random_agent_test_results/black_draws"
      }
    }
  }
  attr {
    key: "_output_shapes"
    value {
      list {
        shape {
        }
      }
    }
  }
  attr {
    key: "use_locking"
    value {
      b: true
    }
  }
  attr {
    key: "validate_shape"
    value {
      b: true
    }
  }
}
node {
  name: "save/Assign_10"
  op: "Assign"
  input: "random_agent_test_results/black_losses"
  input: "save/RestoreV2:10"
  attr {
    key: "T"
    value {
      type: DT_INT32
    }
  }
  attr {
    key: "_class"
    value {
      list {
        s: "loc:@random_agent_test_results/black_losses"
      }
    }
  }
  attr {
    key: "_output_shapes"
    value {
      list {
        shape {
        }
      }
    }
  }
  attr {
    key: "use_locking"
    value {
      b: true
    }
  }
  attr {
    key: "validate_shape"
    value {
      b: true
    }
  }
}
node {
  name: "save/Assign_11"
  op: "Assign"
  input: "random_agent_test_results/black_wins"
  input: "save/RestoreV2:11"
  attr {
    key: "T"
    value {
      type: DT_INT32
    }
  }
  attr {
    key: "_class"
    value {
      list {
        s: "loc:@random_agent_test_results/black_wins"
      }
    }
  }
  attr {
    key: "_output_shapes"
    value {
      list {
        shape {
        }
      }
    }
  }
  attr {
    key: "use_locking"
    value {
      b: true
    }
  }
  attr {
    key: "validate_shape"
    value {
      b: true
    }
  }
}
node {
  name: "save/Assign_12"
  op: "Assign"
  input: "random_agent_test_results/white_draws"
  input: "save/RestoreV2:12"
  attr {
    key: "T"
    value {
      type: DT_INT32
    }
  }
  attr {
    key: "_class"
    value {
      list {
        s: "loc:@random_agent_test_results/white_draws"
      }
    }
  }
  attr {
    key: "_output_shapes"
    value {
      list {
        shape {
        }
      }
    }
  }
  attr {
    key: "use_locking"
    value {
      b: true
    }
  }
  attr {
    key: "validate_shape"
    value {
      b: true
    }
  }
}
node {
  name: "save/Assign_13"
  op: "Assign"
  input: "random_agent_test_results/white_losses"
  input: "save/RestoreV2:13"
  attr {
    key: "T"
    value {
      type: DT_INT32
    }
  }
  attr {
    key: "_class"
    value {
      list {
        s: "loc:@random_agent_test_results/white_losses"
      }
    }
  }
  attr {
    key: "_output_shapes"
    value {
      list {
        shape {
        }
      }
    }
  }
  attr {
    key: "use_locking"
    value {
      b: true
    }
  }
  attr {
    key: "validate_shape"
    value {
      b: true
    }
  }
}
node {
  name: "save/Assign_14"
  op: "Assign"
  input: "random_agent_test_results/white_wins"
  input: "save/RestoreV2:14"
  attr {
    key: "T"
    value {
      type: DT_INT32
    }
  }
  attr {
    key: "_class"
    value {
      list {
        s: "loc:@random_agent_test_results/white_wins"
      }
    }
  }
  attr {
    key: "_output_shapes"
    value {
      list {
        shape {
        }
      }
    }
  }
  attr {
    key: "use_locking"
    value {
      b: true
    }
  }
  attr {
    key: "validate_shape"
    value {
      b: true
    }
  }
}
node {
  name: "save/restore_shard"
  op: "NoOp"
  input: "^save/Assign"
  input: "^save/Assign_1"
  input: "^save/Assign_10"
  input: "^save/Assign_11"
  input: "^save/Assign_12"
  input: "^save/Assign_13"
  input: "^save/Assign_14"
  input: "^save/Assign_2"
  input: "^save/Assign_3"
  input: "^save/Assign_4"
  input: "^save/Assign_5"
  input: "^save/Assign_6"
  input: "^save/Assign_7"
  input: "^save/Assign_8"
  input: "^save/Assign_9"
}
node {
  name: "save/restore_all"
  op: "NoOp"
  input: "^save/restore_shard"
}
versions {
  producer: 27
}
